{"modelTopology": {"node": [{"name": "Output/y", "op": "Const", "attr": {"value": {"tensor": {"dtype": "DT_FLOAT", "tensorShape": {}}}, "dtype": {"type": "DT_FLOAT"}}}, {"name": "Generator/OutBlock/Conv/biases", "op": "Const", "attr": {"value": {"tensor": {"dtype": "DT_FLOAT", "tensorShape": {"dim": [{"size": "3"}]}}}, "dtype": {"type": "DT_FLOAT"}}}, {"name": "Generator/OutBlock/Conv/weights", "op": "Const", "attr": {"value": {"tensor": {"dtype": "DT_FLOAT", "tensorShape": {"dim": [{"size": "3"}, {"size": "3"}, {"size": "32"}, {"size": "3"}]}}}, "dtype": {"type": "DT_FLOAT"}}}, {"name": "Generator/InBlock/Conv/biases", "op": "Const", "attr": {"value": {"tensor": {"dtype": "DT_FLOAT", "tensorShape": {"dim": [{"size": "32"}]}}}, "dtype": {"type": "DT_FLOAT"}}}, {"name": "Generator/InBlock/Conv/weights", "op": "Const", "attr": {"value": {"tensor": {"dtype": "DT_FLOAT", "tensorShape": {"dim": [{"size": "3"}, {"size": "3"}, {"size": "3"}, {"size": "32"}]}}}, "dtype": {"type": "DT_FLOAT"}}}, {"name": "sub/y", "op": "Const", "attr": {"value": {"tensor": {"dtype": "DT_FLOAT", "tensorShape": {}}}, "dtype": {"type": "DT_FLOAT"}}}, {"name": "mul/y", "op": "Const", "attr": {"value": {"tensor": {"dtype": "DT_FLOAT", "tensorShape": {}}}, "dtype": {"type": "DT_FLOAT"}}}, {"name": "Input", "op": "Placeholder", "attr": {"dtype": {"type": "DT_FLOAT"}, "shape": {"shape": {"dim": [{"size": "-1"}, {"size": "-1"}, {"size": "-1"}, {"size": "3"}]}}}}, {"name": "Generator/DBlock_0/Conv/weights", "op": "Const", "attr": {"value": {"tensor": {"dtype": "DT_FLOAT", "tensorShape": {"dim": [{"size": "3"}, {"size": "3"}, {"size": "32"}, {"size": "32"}]}}}, "dtype": {"type": "DT_FLOAT"}}}, {"name": "Generator/EBlock_0/Conv/weights", "op": "Const", "attr": {"dtype": {"type": "DT_FLOAT"}, "value": {"tensor": {"dtype": "DT_FLOAT", "tensorShape": {"dim": [{"size": "3"}, {"size": "3"}, {"size": "32"}, {"size": "32"}]}}}}}, {"name": "Generator/DBlock_0/ResBlock_1/SEUnit/ExpandDims/dim", "op": "Const", "attr": {"value": {"tensor": {"dtype": "DT_INT32", "tensorShape": {}}}, "dtype": {"type": "DT_INT32"}}}, {"name": "Generator/EBlock_0/ResBlock_0/SEUnit/fully_connected_1/biases", "op": "Const", "attr": {"value": {"tensor": {"dtype": "DT_FLOAT", "tensorShape": {"dim": [{"size": "32"}]}}}, "dtype": {"type": "DT_FLOAT"}}}, {"name": "Generator/EBlock_0/ResBlock_0/SEUnit/fully_connected_1/weights", "op": "Const", "attr": {"value": {"tensor": {"dtype": "DT_FLOAT", "tensorShape": {"dim": [{"size": "32"}, {"size": "32"}]}}}, "dtype": {"type": "DT_FLOAT"}}}, {"name": "Generator/EBlock_0/ResBlock_0/SEUnit/fully_connected/biases", "op": "Const", "attr": {"value": {"tensor": {"dtype": "DT_FLOAT", "tensorShape": {"dim": [{"size": "32"}]}}}, "dtype": {"type": "DT_FLOAT"}}}, {"name": "Generator/EBlock_0/ResBlock_0/SEUnit/fully_connected/weights", "op": "Const", "attr": {"value": {"tensor": {"dtype": "DT_FLOAT", "tensorShape": {"dim": [{"size": "32"}, {"size": "32"}]}}}, "dtype": {"type": "DT_FLOAT"}}}, {"name": "Generator/DBlock_0/ResBlock_1/SEUnit/Mean/reduction_indices", "op": "Const", "attr": {"dtype": {"type": "DT_INT32"}, "value": {"tensor": {"dtype": "DT_INT32", "tensorShape": {"dim": [{"size": "2"}]}}}}}, {"name": "Generator/EBlock_0/ResBlock_0/Conv_1/weights", "op": "Const", "attr": {"value": {"tensor": {"dtype": "DT_FLOAT", "tensorShape": {"dim": [{"size": "3"}, {"size": "3"}, {"size": "32"}, {"size": "32"}]}}}, "dtype": {"type": "DT_FLOAT"}}}, {"name": "Generator/EBlock_0/ResBlock_0/Conv/weights", "op": "Const", "attr": {"value": {"tensor": {"dtype": "DT_FLOAT", "tensorShape": {"dim": [{"size": "3"}, {"size": "3"}, {"size": "32"}, {"size": "32"}]}}}, "dtype": {"type": "DT_FLOAT"}}}, {"name": "Generator/EBlock_0/ResBlock_1/SEUnit/fully_connected_1/biases", "op": "Const", "attr": {"value": {"tensor": {"dtype": "DT_FLOAT", "tensorShape": {"dim": [{"size": "32"}]}}}, "dtype": {"type": "DT_FLOAT"}}}, {"name": "Generator/EBlock_0/ResBlock_1/SEUnit/fully_connected_1/weights", "op": "Const", "attr": {"value": {"tensor": {"dtype": "DT_FLOAT", "tensorShape": {"dim": [{"size": "32"}, {"size": "32"}]}}}, "dtype": {"type": "DT_FLOAT"}}}, {"name": "Generator/EBlock_0/ResBlock_1/SEUnit/fully_connected/biases", "op": "Const", "attr": {"value": {"tensor": {"dtype": "DT_FLOAT", "tensorShape": {"dim": [{"size": "32"}]}}}, "dtype": {"type": "DT_FLOAT"}}}, {"name": "Generator/EBlock_0/ResBlock_1/SEUnit/fully_connected/weights", "op": "Const", "attr": {"value": {"tensor": {"dtype": "DT_FLOAT", "tensorShape": {"dim": [{"size": "32"}, {"size": "32"}]}}}, "dtype": {"type": "DT_FLOAT"}}}, {"name": "Generator/EBlock_0/ResBlock_1/Conv_1/weights", "op": "Const", "attr": {"value": {"tensor": {"dtype": "DT_FLOAT", "tensorShape": {"dim": [{"size": "3"}, {"size": "3"}, {"size": "32"}, {"size": "32"}]}}}, "dtype": {"type": "DT_FLOAT"}}}, {"name": "Generator/EBlock_0/ResBlock_1/Conv/weights", "op": "Const", "attr": {"value": {"tensor": {"dtype": "DT_FLOAT", "tensorShape": {"dim": [{"size": "3"}, {"size": "3"}, {"size": "32"}, {"size": "32"}]}}}, "dtype": {"type": "DT_FLOAT"}}}, {"name": "Generator/DBlock_1/Conv/weights", "op": "Const", "attr": {"value": {"tensor": {"dtype": "DT_FLOAT", "tensorShape": {"dim": [{"size": "3"}, {"size": "3"}, {"size": "64"}, {"size": "32"}]}}}, "dtype": {"type": "DT_FLOAT"}}}, {"name": "Generator/DBlock_3/Upsample/mul/y", "op": "Const", "attr": {"dtype": {"type": "DT_INT32"}, "value": {"tensor": {"dtype": "DT_INT32", "tensorShape": {"dim": [{"size": "2"}]}}}}}, {"name": "Generator/DBlock_3/Upsample/strided_slice/stack_2", "op": "Const", "attr": {"value": {"tensor": {"dtype": "DT_INT32", "tensorShape": {"dim": [{"size": "1"}]}}}, "dtype": {"type": "DT_INT32"}}}, {"name": "Generator/DBlock_3/Upsample/strided_slice/stack_1", "op": "Const", "attr": {"value": {"tensor": {"dtype": "DT_INT32", "tensorShape": {"dim": [{"size": "1"}]}}}, "dtype": {"type": "DT_INT32"}}}, {"name": "Generator/DBlock_3/Upsample/strided_slice/stack", "op": "Const", "attr": {"value": {"tensor": {"dtype": "DT_INT32", "tensorShape": {"dim": [{"size": "1"}]}}}, "dtype": {"type": "DT_INT32"}}}, {"name": "Generator/EBlock_1/Conv/weights", "op": "Const", "attr": {"value": {"tensor": {"dtype": "DT_FLOAT", "tensorShape": {"dim": [{"size": "4"}, {"size": "4"}, {"size": "32"}, {"size": "64"}]}}}, "dtype": {"type": "DT_FLOAT"}}}, {"name": "Generator/EBlock_1/ResBlock_0/SEUnit/fully_connected_1/biases", "op": "Const", "attr": {"value": {"tensor": {"dtype": "DT_FLOAT", "tensorShape": {"dim": [{"size": "64"}]}}}, "dtype": {"type": "DT_FLOAT"}}}, {"name": "Generator/EBlock_1/ResBlock_0/SEUnit/fully_connected_1/weights", "op": "Const", "attr": {"value": {"tensor": {"dtype": "DT_FLOAT", "tensorShape": {"dim": [{"size": "64"}, {"size": "64"}]}}}, "dtype": {"type": "DT_FLOAT"}}}, {"name": "Generator/EBlock_1/ResBlock_0/SEUnit/fully_connected/biases", "op": "Const", "attr": {"dtype": {"type": "DT_FLOAT"}, "value": {"tensor": {"dtype": "DT_FLOAT", "tensorShape": {"dim": [{"size": "64"}]}}}}}, {"name": "Generator/EBlock_1/ResBlock_0/SEUnit/fully_connected/weights", "op": "Const", "attr": {"value": {"tensor": {"dtype": "DT_FLOAT", "tensorShape": {"dim": [{"size": "64"}, {"size": "64"}]}}}, "dtype": {"type": "DT_FLOAT"}}}, {"name": "Generator/EBlock_1/ResBlock_0/Conv_1/weights", "op": "Const", "attr": {"value": {"tensor": {"dtype": "DT_FLOAT", "tensorShape": {"dim": [{"size": "3"}, {"size": "3"}, {"size": "64"}, {"size": "64"}]}}}, "dtype": {"type": "DT_FLOAT"}}}, {"name": "Generator/EBlock_1/ResBlock_0/Conv/weights", "op": "Const", "attr": {"value": {"tensor": {"dtype": "DT_FLOAT", "tensorShape": {"dim": [{"size": "3"}, {"size": "3"}, {"size": "64"}, {"size": "64"}]}}}, "dtype": {"type": "DT_FLOAT"}}}, {"name": "Generator/EBlock_1/ResBlock_1/SEUnit/fully_connected_1/biases", "op": "Const", "attr": {"value": {"tensor": {"dtype": "DT_FLOAT", "tensorShape": {"dim": [{"size": "64"}]}}}, "dtype": {"type": "DT_FLOAT"}}}, {"name": "Generator/EBlock_1/ResBlock_1/SEUnit/fully_connected_1/weights", "op": "Const", "attr": {"value": {"tensor": {"dtype": "DT_FLOAT", "tensorShape": {"dim": [{"size": "64"}, {"size": "64"}]}}}, "dtype": {"type": "DT_FLOAT"}}}, {"name": "Generator/EBlock_1/ResBlock_1/SEUnit/fully_connected/biases", "op": "Const", "attr": {"value": {"tensor": {"dtype": "DT_FLOAT", "tensorShape": {"dim": [{"size": "64"}]}}}, "dtype": {"type": "DT_FLOAT"}}}, {"name": "Generator/EBlock_1/ResBlock_1/SEUnit/fully_connected/weights", "op": "Const", "attr": {"value": {"tensor": {"dtype": "DT_FLOAT", "tensorShape": {"dim": [{"size": "64"}, {"size": "64"}]}}}, "dtype": {"type": "DT_FLOAT"}}}, {"name": "Generator/EBlock_1/ResBlock_1/Conv_1/weights", "op": "Const", "attr": {"value": {"tensor": {"dtype": "DT_FLOAT", "tensorShape": {"dim": [{"size": "3"}, {"size": "3"}, {"size": "64"}, {"size": "64"}]}}}, "dtype": {"type": "DT_FLOAT"}}}, {"name": "Generator/EBlock_1/ResBlock_1/Conv/weights", "op": "Const", "attr": {"value": {"tensor": {"dtype": "DT_FLOAT", "tensorShape": {"dim": [{"size": "3"}, {"size": "3"}, {"size": "64"}, {"size": "64"}]}}}, "dtype": {"type": "DT_FLOAT"}}}, {"name": "Generator/DBlock_2/Conv/weights", "op": "Const", "attr": {"value": {"tensor": {"dtype": "DT_FLOAT", "tensorShape": {"dim": [{"size": "3"}, {"size": "3"}, {"size": "96"}, {"size": "64"}]}}}, "dtype": {"type": "DT_FLOAT"}}}, {"name": "Generator/EBlock_2/Conv/weights", "op": "Const", "attr": {"value": {"tensor": {"dtype": "DT_FLOAT", "tensorShape": {"dim": [{"size": "4"}, {"size": "4"}, {"size": "64"}, {"size": "96"}]}}}, "dtype": {"type": "DT_FLOAT"}}}, {"name": "Generator/EBlock_2/ResBlock_0/SEUnit/fully_connected_1/biases", "op": "Const", "attr": {"value": {"tensor": {"dtype": "DT_FLOAT", "tensorShape": {"dim": [{"size": "96"}]}}}, "dtype": {"type": "DT_FLOAT"}}}, {"name": "Generator/EBlock_2/ResBlock_0/SEUnit/fully_connected_1/weights", "op": "Const", "attr": {"dtype": {"type": "DT_FLOAT"}, "value": {"tensor": {"dtype": "DT_FLOAT", "tensorShape": {"dim": [{"size": "96"}, {"size": "96"}]}}}}}, {"name": "Generator/EBlock_2/ResBlock_0/SEUnit/fully_connected/biases", "op": "Const", "attr": {"dtype": {"type": "DT_FLOAT"}, "value": {"tensor": {"dtype": "DT_FLOAT", "tensorShape": {"dim": [{"size": "96"}]}}}}}, {"name": "Generator/EBlock_2/ResBlock_0/SEUnit/fully_connected/weights", "op": "Const", "attr": {"value": {"tensor": {"dtype": "DT_FLOAT", "tensorShape": {"dim": [{"size": "96"}, {"size": "96"}]}}}, "dtype": {"type": "DT_FLOAT"}}}, {"name": "Generator/EBlock_2/ResBlock_0/Conv_1/weights", "op": "Const", "attr": {"dtype": {"type": "DT_FLOAT"}, "value": {"tensor": {"dtype": "DT_FLOAT", "tensorShape": {"dim": [{"size": "3"}, {"size": "3"}, {"size": "96"}, {"size": "96"}]}}}}}, {"name": "Generator/EBlock_2/ResBlock_0/Conv/weights", "op": "Const", "attr": {"value": {"tensor": {"dtype": "DT_FLOAT", "tensorShape": {"dim": [{"size": "3"}, {"size": "3"}, {"size": "96"}, {"size": "96"}]}}}, "dtype": {"type": "DT_FLOAT"}}}, {"name": "Generator/EBlock_2/ResBlock_1/SEUnit/fully_connected_1/biases", "op": "Const", "attr": {"value": {"tensor": {"dtype": "DT_FLOAT", "tensorShape": {"dim": [{"size": "96"}]}}}, "dtype": {"type": "DT_FLOAT"}}}, {"name": "Generator/EBlock_2/ResBlock_1/SEUnit/fully_connected_1/weights", "op": "Const", "attr": {"value": {"tensor": {"dtype": "DT_FLOAT", "tensorShape": {"dim": [{"size": "96"}, {"size": "96"}]}}}, "dtype": {"type": "DT_FLOAT"}}}, {"name": "Generator/EBlock_2/ResBlock_1/SEUnit/fully_connected/biases", "op": "Const", "attr": {"value": {"tensor": {"dtype": "DT_FLOAT", "tensorShape": {"dim": [{"size": "96"}]}}}, "dtype": {"type": "DT_FLOAT"}}}, {"name": "Generator/EBlock_2/ResBlock_1/SEUnit/fully_connected/weights", "op": "Const", "attr": {"value": {"tensor": {"dtype": "DT_FLOAT", "tensorShape": {"dim": [{"size": "96"}, {"size": "96"}]}}}, "dtype": {"type": "DT_FLOAT"}}}, {"name": "Generator/EBlock_2/ResBlock_1/Conv_1/weights", "op": "Const", "attr": {"dtype": {"type": "DT_FLOAT"}, "value": {"tensor": {"dtype": "DT_FLOAT", "tensorShape": {"dim": [{"size": "3"}, {"size": "3"}, {"size": "96"}, {"size": "96"}]}}}}}, {"name": "Generator/EBlock_2/ResBlock_1/Conv/weights", "op": "Const", "attr": {"value": {"tensor": {"dtype": "DT_FLOAT", "tensorShape": {"dim": [{"size": "3"}, {"size": "3"}, {"size": "96"}, {"size": "96"}]}}}, "dtype": {"type": "DT_FLOAT"}}}, {"name": "Generator/DBlock_3/Conv/weights", "op": "Const", "attr": {"value": {"tensor": {"dtype": "DT_FLOAT", "tensorShape": {"dim": [{"size": "3"}, {"size": "3"}, {"size": "128"}, {"size": "96"}]}}}, "dtype": {"type": "DT_FLOAT"}}}, {"name": "Generator/EBlock_3/Conv/weights", "op": "Const", "attr": {"value": {"tensor": {"dtype": "DT_FLOAT", "tensorShape": {"dim": [{"size": "4"}, {"size": "4"}, {"size": "96"}, {"size": "128"}]}}}, "dtype": {"type": "DT_FLOAT"}}}, {"name": "Generator/EBlock_3/ResBlock_0/SEUnit/fully_connected_1/biases", "op": "Const", "attr": {"value": {"tensor": {"dtype": "DT_FLOAT", "tensorShape": {"dim": [{"size": "128"}]}}}, "dtype": {"type": "DT_FLOAT"}}}, {"name": "Generator/EBlock_3/ResBlock_0/SEUnit/fully_connected_1/weights", "op": "Const", "attr": {"value": {"tensor": {"dtype": "DT_FLOAT", "tensorShape": {"dim": [{"size": "128"}, {"size": "128"}]}}}, "dtype": {"type": "DT_FLOAT"}}}, {"name": "Generator/EBlock_3/ResBlock_0/SEUnit/fully_connected/biases", "op": "Const", "attr": {"value": {"tensor": {"dtype": "DT_FLOAT", "tensorShape": {"dim": [{"size": "128"}]}}}, "dtype": {"type": "DT_FLOAT"}}}, {"name": "Generator/EBlock_3/ResBlock_0/SEUnit/fully_connected/weights", "op": "Const", "attr": {"value": {"tensor": {"dtype": "DT_FLOAT", "tensorShape": {"dim": [{"size": "128"}, {"size": "128"}]}}}, "dtype": {"type": "DT_FLOAT"}}}, {"name": "Generator/EBlock_3/ResBlock_0/Conv_1/weights", "op": "Const", "attr": {"value": {"tensor": {"dtype": "DT_FLOAT", "tensorShape": {"dim": [{"size": "3"}, {"size": "3"}, {"size": "128"}, {"size": "128"}]}}}, "dtype": {"type": "DT_FLOAT"}}}, {"name": "Generator/EBlock_3/ResBlock_0/Conv/weights", "op": "Const", "attr": {"value": {"tensor": {"dtype": "DT_FLOAT", "tensorShape": {"dim": [{"size": "3"}, {"size": "3"}, {"size": "128"}, {"size": "128"}]}}}, "dtype": {"type": "DT_FLOAT"}}}, {"name": "Generator/EBlock_3/ResBlock_1/SEUnit/fully_connected_1/biases", "op": "Const", "attr": {"value": {"tensor": {"dtype": "DT_FLOAT", "tensorShape": {"dim": [{"size": "128"}]}}}, "dtype": {"type": "DT_FLOAT"}}}, {"name": "Generator/EBlock_3/ResBlock_1/SEUnit/fully_connected_1/weights", "op": "Const", "attr": {"value": {"tensor": {"dtype": "DT_FLOAT", "tensorShape": {"dim": [{"size": "128"}, {"size": "128"}]}}}, "dtype": {"type": "DT_FLOAT"}}}, {"name": "Generator/EBlock_3/ResBlock_1/SEUnit/fully_connected/biases", "op": "Const", "attr": {"value": {"tensor": {"dtype": "DT_FLOAT", "tensorShape": {"dim": [{"size": "128"}]}}}, "dtype": {"type": "DT_FLOAT"}}}, {"name": "Generator/EBlock_3/ResBlock_1/SEUnit/fully_connected/weights", "op": "Const", "attr": {"value": {"tensor": {"dtype": "DT_FLOAT", "tensorShape": {"dim": [{"size": "128"}, {"size": "128"}]}}}, "dtype": {"type": "DT_FLOAT"}}}, {"name": "Generator/EBlock_3/ResBlock_1/Conv_1/weights", "op": "Const", "attr": {"value": {"tensor": {"dtype": "DT_FLOAT", "tensorShape": {"dim": [{"size": "3"}, {"size": "3"}, {"size": "128"}, {"size": "128"}]}}}, "dtype": {"type": "DT_FLOAT"}}}, {"name": "Generator/EBlock_3/ResBlock_1/Conv/weights", "op": "Const", "attr": {"value": {"tensor": {"dtype": "DT_FLOAT", "tensorShape": {"dim": [{"size": "3"}, {"size": "3"}, {"size": "128"}, {"size": "128"}]}}}, "dtype": {"type": "DT_FLOAT"}}}, {"name": "Generator/DBlock_3/ResBlock_0/SEUnit/fully_connected_1/biases", "op": "Const", "attr": {"value": {"tensor": {"dtype": "DT_FLOAT", "tensorShape": {"dim": [{"size": "96"}]}}}, "dtype": {"type": "DT_FLOAT"}}}, {"name": "Generator/DBlock_3/ResBlock_0/SEUnit/fully_connected_1/weights", "op": "Const", "attr": {"value": {"tensor": {"dtype": "DT_FLOAT", "tensorShape": {"dim": [{"size": "96"}, {"size": "96"}]}}}, "dtype": {"type": "DT_FLOAT"}}}, {"name": "Generator/DBlock_3/ResBlock_0/SEUnit/fully_connected/biases", "op": "Const", "attr": {"value": {"tensor": {"dtype": "DT_FLOAT", "tensorShape": {"dim": [{"size": "96"}]}}}, "dtype": {"type": "DT_FLOAT"}}}, {"name": "Generator/DBlock_3/ResBlock_0/SEUnit/fully_connected/weights", "op": "Const", "attr": {"value": {"tensor": {"dtype": "DT_FLOAT", "tensorShape": {"dim": [{"size": "96"}, {"size": "96"}]}}}, "dtype": {"type": "DT_FLOAT"}}}, {"name": "Generator/DBlock_3/ResBlock_0/Conv_1/weights", "op": "Const", "attr": {"value": {"tensor": {"dtype": "DT_FLOAT", "tensorShape": {"dim": [{"size": "3"}, {"size": "3"}, {"size": "96"}, {"size": "96"}]}}}, "dtype": {"type": "DT_FLOAT"}}}, {"name": "Generator/DBlock_3/ResBlock_0/Conv/weights", "op": "Const", "attr": {"value": {"tensor": {"dtype": "DT_FLOAT", "tensorShape": {"dim": [{"size": "3"}, {"size": "3"}, {"size": "96"}, {"size": "96"}]}}}, "dtype": {"type": "DT_FLOAT"}}}, {"name": "Generator/DBlock_3/ResBlock_1/SEUnit/fully_connected_1/biases", "op": "Const", "attr": {"value": {"tensor": {"dtype": "DT_FLOAT", "tensorShape": {"dim": [{"size": "96"}]}}}, "dtype": {"type": "DT_FLOAT"}}}, {"name": "Generator/DBlock_3/ResBlock_1/SEUnit/fully_connected_1/weights", "op": "Const", "attr": {"value": {"tensor": {"dtype": "DT_FLOAT", "tensorShape": {"dim": [{"size": "96"}, {"size": "96"}]}}}, "dtype": {"type": "DT_FLOAT"}}}, {"name": "Generator/DBlock_3/ResBlock_1/SEUnit/fully_connected/biases", "op": "Const", "attr": {"value": {"tensor": {"dtype": "DT_FLOAT", "tensorShape": {"dim": [{"size": "96"}]}}}, "dtype": {"type": "DT_FLOAT"}}}, {"name": "Generator/DBlock_3/ResBlock_1/SEUnit/fully_connected/weights", "op": "Const", "attr": {"value": {"tensor": {"dtype": "DT_FLOAT", "tensorShape": {"dim": [{"size": "96"}, {"size": "96"}]}}}, "dtype": {"type": "DT_FLOAT"}}}, {"name": "Generator/DBlock_3/ResBlock_1/Conv_1/weights", "op": "Const", "attr": {"value": {"tensor": {"dtype": "DT_FLOAT", "tensorShape": {"dim": [{"size": "3"}, {"size": "3"}, {"size": "96"}, {"size": "96"}]}}}, "dtype": {"type": "DT_FLOAT"}}}, {"name": "Generator/DBlock_3/ResBlock_1/Conv/weights", "op": "Const", "attr": {"dtype": {"type": "DT_FLOAT"}, "value": {"tensor": {"dtype": "DT_FLOAT", "tensorShape": {"dim": [{"size": "3"}, {"size": "3"}, {"size": "96"}, {"size": "96"}]}}}}}, {"name": "Generator/DBlock_2/ResBlock_0/SEUnit/fully_connected_1/biases", "op": "Const", "attr": {"value": {"tensor": {"dtype": "DT_FLOAT", "tensorShape": {"dim": [{"size": "64"}]}}}, "dtype": {"type": "DT_FLOAT"}}}, {"name": "Generator/DBlock_2/ResBlock_0/SEUnit/fully_connected_1/weights", "op": "Const", "attr": {"value": {"tensor": {"dtype": "DT_FLOAT", "tensorShape": {"dim": [{"size": "64"}, {"size": "64"}]}}}, "dtype": {"type": "DT_FLOAT"}}}, {"name": "Generator/DBlock_2/ResBlock_0/SEUnit/fully_connected/biases", "op": "Const", "attr": {"value": {"tensor": {"dtype": "DT_FLOAT", "tensorShape": {"dim": [{"size": "64"}]}}}, "dtype": {"type": "DT_FLOAT"}}}, {"name": "Generator/DBlock_2/ResBlock_0/SEUnit/fully_connected/weights", "op": "Const", "attr": {"value": {"tensor": {"dtype": "DT_FLOAT", "tensorShape": {"dim": [{"size": "64"}, {"size": "64"}]}}}, "dtype": {"type": "DT_FLOAT"}}}, {"name": "Generator/DBlock_2/ResBlock_0/Conv_1/weights", "op": "Const", "attr": {"value": {"tensor": {"dtype": "DT_FLOAT", "tensorShape": {"dim": [{"size": "3"}, {"size": "3"}, {"size": "64"}, {"size": "64"}]}}}, "dtype": {"type": "DT_FLOAT"}}}, {"name": "Generator/DBlock_2/ResBlock_0/Conv/weights", "op": "Const", "attr": {"value": {"tensor": {"dtype": "DT_FLOAT", "tensorShape": {"dim": [{"size": "3"}, {"size": "3"}, {"size": "64"}, {"size": "64"}]}}}, "dtype": {"type": "DT_FLOAT"}}}, {"name": "Generator/DBlock_2/ResBlock_1/SEUnit/fully_connected_1/biases", "op": "Const", "attr": {"dtype": {"type": "DT_FLOAT"}, "value": {"tensor": {"dtype": "DT_FLOAT", "tensorShape": {"dim": [{"size": "64"}]}}}}}, {"name": "Generator/DBlock_2/ResBlock_1/SEUnit/fully_connected_1/weights", "op": "Const", "attr": {"value": {"tensor": {"dtype": "DT_FLOAT", "tensorShape": {"dim": [{"size": "64"}, {"size": "64"}]}}}, "dtype": {"type": "DT_FLOAT"}}}, {"name": "Generator/DBlock_2/ResBlock_1/SEUnit/fully_connected/biases", "op": "Const", "attr": {"value": {"tensor": {"dtype": "DT_FLOAT", "tensorShape": {"dim": [{"size": "64"}]}}}, "dtype": {"type": "DT_FLOAT"}}}, {"name": "Generator/DBlock_2/ResBlock_1/SEUnit/fully_connected/weights", "op": "Const", "attr": {"value": {"tensor": {"dtype": "DT_FLOAT", "tensorShape": {"dim": [{"size": "64"}, {"size": "64"}]}}}, "dtype": {"type": "DT_FLOAT"}}}, {"name": "Generator/DBlock_2/ResBlock_1/Conv_1/weights", "op": "Const", "attr": {"value": {"tensor": {"dtype": "DT_FLOAT", "tensorShape": {"dim": [{"size": "3"}, {"size": "3"}, {"size": "64"}, {"size": "64"}]}}}, "dtype": {"type": "DT_FLOAT"}}}, {"name": "Generator/DBlock_2/ResBlock_1/Conv/weights", "op": "Const", "attr": {"dtype": {"type": "DT_FLOAT"}, "value": {"tensor": {"dtype": "DT_FLOAT", "tensorShape": {"dim": [{"size": "3"}, {"size": "3"}, {"size": "64"}, {"size": "64"}]}}}}}, {"name": "Generator/DBlock_1/ResBlock_0/SEUnit/fully_connected_1/biases", "op": "Const", "attr": {"value": {"tensor": {"dtype": "DT_FLOAT", "tensorShape": {"dim": [{"size": "32"}]}}}, "dtype": {"type": "DT_FLOAT"}}}, {"name": "Generator/DBlock_1/ResBlock_0/SEUnit/fully_connected_1/weights", "op": "Const", "attr": {"value": {"tensor": {"dtype": "DT_FLOAT", "tensorShape": {"dim": [{"size": "32"}, {"size": "32"}]}}}, "dtype": {"type": "DT_FLOAT"}}}, {"name": "Generator/DBlock_1/ResBlock_0/SEUnit/fully_connected/biases", "op": "Const", "attr": {"value": {"tensor": {"dtype": "DT_FLOAT", "tensorShape": {"dim": [{"size": "32"}]}}}, "dtype": {"type": "DT_FLOAT"}}}, {"name": "Generator/DBlock_1/ResBlock_0/SEUnit/fully_connected/weights", "op": "Const", "attr": {"dtype": {"type": "DT_FLOAT"}, "value": {"tensor": {"dtype": "DT_FLOAT", "tensorShape": {"dim": [{"size": "32"}, {"size": "32"}]}}}}}, {"name": "Generator/DBlock_1/ResBlock_0/Conv_1/weights", "op": "Const", "attr": {"value": {"tensor": {"dtype": "DT_FLOAT", "tensorShape": {"dim": [{"size": "3"}, {"size": "3"}, {"size": "32"}, {"size": "32"}]}}}, "dtype": {"type": "DT_FLOAT"}}}, {"name": "Generator/DBlock_1/ResBlock_0/Conv/weights", "op": "Const", "attr": {"value": {"tensor": {"dtype": "DT_FLOAT", "tensorShape": {"dim": [{"size": "3"}, {"size": "3"}, {"size": "32"}, {"size": "32"}]}}}, "dtype": {"type": "DT_FLOAT"}}}, {"name": "Generator/DBlock_1/ResBlock_1/SEUnit/fully_connected_1/biases", "op": "Const", "attr": {"dtype": {"type": "DT_FLOAT"}, "value": {"tensor": {"dtype": "DT_FLOAT", "tensorShape": {"dim": [{"size": "32"}]}}}}}, {"name": "Generator/DBlock_1/ResBlock_1/SEUnit/fully_connected_1/weights", "op": "Const", "attr": {"value": {"tensor": {"dtype": "DT_FLOAT", "tensorShape": {"dim": [{"size": "32"}, {"size": "32"}]}}}, "dtype": {"type": "DT_FLOAT"}}}, {"name": "Generator/DBlock_1/ResBlock_1/SEUnit/fully_connected/biases", "op": "Const", "attr": {"value": {"tensor": {"dtype": "DT_FLOAT", "tensorShape": {"dim": [{"size": "32"}]}}}, "dtype": {"type": "DT_FLOAT"}}}, {"name": "Generator/DBlock_1/ResBlock_1/SEUnit/fully_connected/weights", "op": "Const", "attr": {"value": {"tensor": {"dtype": "DT_FLOAT", "tensorShape": {"dim": [{"size": "32"}, {"size": "32"}]}}}, "dtype": {"type": "DT_FLOAT"}}}, {"name": "Generator/DBlock_1/ResBlock_1/Conv_1/weights", "op": "Const", "attr": {"value": {"tensor": {"dtype": "DT_FLOAT", "tensorShape": {"dim": [{"size": "3"}, {"size": "3"}, {"size": "32"}, {"size": "32"}]}}}, "dtype": {"type": "DT_FLOAT"}}}, {"name": "Generator/DBlock_1/ResBlock_1/Conv/weights", "op": "Const", "attr": {"value": {"tensor": {"dtype": "DT_FLOAT", "tensorShape": {"dim": [{"size": "3"}, {"size": "3"}, {"size": "32"}, {"size": "32"}]}}}, "dtype": {"type": "DT_FLOAT"}}}, {"name": "Generator/DBlock_0/ResBlock_0/SEUnit/fully_connected_1/biases", "op": "Const", "attr": {"value": {"tensor": {"dtype": "DT_FLOAT", "tensorShape": {"dim": [{"size": "32"}]}}}, "dtype": {"type": "DT_FLOAT"}}}, {"name": "Generator/DBlock_0/ResBlock_0/SEUnit/fully_connected_1/weights", "op": "Const", "attr": {"dtype": {"type": "DT_FLOAT"}, "value": {"tensor": {"dtype": "DT_FLOAT", "tensorShape": {"dim": [{"size": "32"}, {"size": "32"}]}}}}}, {"name": "Generator/DBlock_0/ResBlock_0/SEUnit/fully_connected/biases", "op": "Const", "attr": {"value": {"tensor": {"dtype": "DT_FLOAT", "tensorShape": {"dim": [{"size": "32"}]}}}, "dtype": {"type": "DT_FLOAT"}}}, {"name": "Generator/DBlock_0/ResBlock_0/SEUnit/fully_connected/weights", "op": "Const", "attr": {"value": {"tensor": {"dtype": "DT_FLOAT", "tensorShape": {"dim": [{"size": "32"}, {"size": "32"}]}}}, "dtype": {"type": "DT_FLOAT"}}}, {"name": "Generator/DBlock_0/ResBlock_0/Conv_1/weights", "op": "Const", "attr": {"value": {"tensor": {"dtype": "DT_FLOAT", "tensorShape": {"dim": [{"size": "3"}, {"size": "3"}, {"size": "32"}, {"size": "32"}]}}}, "dtype": {"type": "DT_FLOAT"}}}, {"name": "Generator/DBlock_0/ResBlock_0/Conv/weights", "op": "Const", "attr": {"value": {"tensor": {"dtype": "DT_FLOAT", "tensorShape": {"dim": [{"size": "3"}, {"size": "3"}, {"size": "32"}, {"size": "32"}]}}}, "dtype": {"type": "DT_FLOAT"}}}, {"name": "Generator/DBlock_0/ResBlock_1/SEUnit/fully_connected_1/biases", "op": "Const", "attr": {"value": {"tensor": {"dtype": "DT_FLOAT", "tensorShape": {"dim": [{"size": "32"}]}}}, "dtype": {"type": "DT_FLOAT"}}}, {"name": "Generator/DBlock_0/ResBlock_1/SEUnit/fully_connected_1/weights", "op": "Const", "attr": {"value": {"tensor": {"dtype": "DT_FLOAT", "tensorShape": {"dim": [{"size": "32"}, {"size": "32"}]}}}, "dtype": {"type": "DT_FLOAT"}}}, {"name": "Generator/DBlock_0/ResBlock_1/SEUnit/fully_connected/biases", "op": "Const", "attr": {"value": {"tensor": {"dtype": "DT_FLOAT", "tensorShape": {"dim": [{"size": "32"}]}}}, "dtype": {"type": "DT_FLOAT"}}}, {"name": "Generator/DBlock_0/ResBlock_1/SEUnit/fully_connected/weights", "op": "Const", "attr": {"value": {"tensor": {"dtype": "DT_FLOAT", "tensorShape": {"dim": [{"size": "32"}, {"size": "32"}]}}}, "dtype": {"type": "DT_FLOAT"}}}, {"name": "Generator/DBlock_0/ResBlock_1/Conv_1/weights", "op": "Const", "attr": {"value": {"tensor": {"dtype": "DT_FLOAT", "tensorShape": {"dim": [{"size": "3"}, {"size": "3"}, {"size": "32"}, {"size": "32"}]}}}, "dtype": {"type": "DT_FLOAT"}}}, {"name": "Generator/DBlock_0/ResBlock_1/Conv/weights", "op": "Const", "attr": {"value": {"tensor": {"dtype": "DT_FLOAT", "tensorShape": {"dim": [{"size": "3"}, {"size": "3"}, {"size": "32"}, {"size": "32"}]}}}, "dtype": {"type": "DT_FLOAT"}}}, {"name": "mul", "op": "Mul", "input": ["Input", "mul/y"], "attr": {"T": {"type": "DT_FLOAT"}}}, {"name": "sub", "op": "Sub", "input": ["mul", "sub/y"], "attr": {"T": {"type": "DT_FLOAT"}}}, {"name": "Generator/InBlock/Conv/Conv2D", "op": "Conv2D", "input": ["sub", "Generator/InBlock/Conv/weights"], "attr": {"padding": {"s": "U0FNRQ=="}, "dilations": {"list": {"i": ["1", "1", "1", "1"]}}, "T": {"type": "DT_FLOAT"}, "strides": {"list": {"i": ["1", "1", "1", "1"]}}, "data_format": {"s": "TkhXQw=="}, "use_cudnn_on_gpu": {"b": true}}}, {"name": "Generator/OutBlock/add", "op": "Add", "input": ["sub/y", "sub"], "attr": {"T": {"type": "DT_FLOAT"}}}, {"name": "Generator/InBlock/Conv/BiasAdd", "op": "BiasAdd", "input": ["Generator/InBlock/Conv/Conv2D", "Generator/InBlock/Conv/biases"], "attr": {"T": {"type": "DT_FLOAT"}, "data_format": {"s": "TkhXQw=="}}}, {"name": "Generator/EBlock_0/Swish/Sigmoid", "op": "Sigmoid", "input": ["Generator/InBlock/Conv/BiasAdd"], "attr": {"T": {"type": "DT_FLOAT"}}}, {"name": "Generator/EBlock_0/Swish/mul", "op": "Mul", "input": ["Generator/InBlock/Conv/BiasAdd", "Generator/EBlock_0/Swish/Sigmoid"], "attr": {"T": {"type": "DT_FLOAT"}}}, {"name": "Generator/EBlock_0/Conv/Conv2D", "op": "Conv2D", "input": ["Generator/EBlock_0/Swish/mul", "Generator/EBlock_0/Conv/weights"], "attr": {"data_format": {"s": "TkhXQw=="}, "strides": {"list": {"i": ["1", "1", "1", "1"]}}, "use_cudnn_on_gpu": {"b": true}, "padding": {"s": "U0FNRQ=="}, "dilations": {"list": {"i": ["1", "1", "1", "1"]}}, "T": {"type": "DT_FLOAT"}}}, {"name": "Generator/EBlock_0/ResBlock_0/Swish/Sigmoid", "op": "Sigmoid", "input": ["Generator/EBlock_0/Conv/Conv2D"], "attr": {"T": {"type": "DT_FLOAT"}}}, {"name": "Generator/EBlock_0/ResBlock_0/Swish/mul", "op": "Mul", "input": ["Generator/EBlock_0/Conv/Conv2D", "Generator/EBlock_0/ResBlock_0/Swish/Sigmoid"], "attr": {"T": {"type": "DT_FLOAT"}}}, {"name": "Generator/EBlock_0/ResBlock_0/Conv/Conv2D", "op": "Conv2D", "input": ["Generator/EBlock_0/ResBlock_0/Swish/mul", "Generator/EBlock_0/ResBlock_0/Conv/weights"], "attr": {"data_format": {"s": "TkhXQw=="}, "strides": {"list": {"i": ["1", "1", "1", "1"]}}, "use_cudnn_on_gpu": {"b": true}, "padding": {"s": "U0FNRQ=="}, "dilations": {"list": {"i": ["1", "1", "1", "1"]}}, "T": {"type": "DT_FLOAT"}}}, {"name": "Generator/EBlock_0/ResBlock_0/Conv/Swish/Sigmoid", "op": "Sigmoid", "input": ["Generator/EBlock_0/ResBlock_0/Conv/Conv2D"], "attr": {"T": {"type": "DT_FLOAT"}}}, {"name": "Generator/EBlock_0/ResBlock_0/Conv/Swish/mul", "op": "Mul", "input": ["Generator/EBlock_0/ResBlock_0/Conv/Conv2D", "Generator/EBlock_0/ResBlock_0/Conv/Swish/Sigmoid"], "attr": {"T": {"type": "DT_FLOAT"}}}, {"name": "Generator/EBlock_0/ResBlock_0/Conv_1/Conv2D", "op": "Conv2D", "input": ["Generator/EBlock_0/ResBlock_0/Conv/Swish/mul", "Generator/EBlock_0/ResBlock_0/Conv_1/weights"], "attr": {"dilations": {"list": {"i": ["1", "1", "1", "1"]}}, "T": {"type": "DT_FLOAT"}, "data_format": {"s": "TkhXQw=="}, "strides": {"list": {"i": ["1", "1", "1", "1"]}}, "use_cudnn_on_gpu": {"b": true}, "padding": {"s": "U0FNRQ=="}}}, {"name": "Generator/EBlock_0/ResBlock_0/SEUnit/Mean", "op": "Mean", "input": ["Generator/EBlock_0/ResBlock_0/Conv_1/Conv2D", "Generator/DBlock_0/ResBlock_1/SEUnit/Mean/reduction_indices"], "attr": {"keep_dims": {"b": false}, "Tidx": {"type": "DT_INT32"}, "T": {"type": "DT_FLOAT"}}}, {"name": "Generator/EBlock_0/ResBlock_0/SEUnit/fully_connected/MatMul", "op": "MatMul", "input": ["Generator/EBlock_0/ResBlock_0/SEUnit/Mean", "Generator/EBlock_0/ResBlock_0/SEUnit/fully_connected/weights"], "attr": {"T": {"type": "DT_FLOAT"}, "transpose_a": {"b": false}, "transpose_b": {"b": false}}}, {"name": "Generator/EBlock_0/ResBlock_0/SEUnit/fully_connected/BiasAdd", "op": "BiasAdd", "input": ["Generator/EBlock_0/ResBlock_0/SEUnit/fully_connected/MatMul", "Generator/EBlock_0/ResBlock_0/SEUnit/fully_connected/biases"], "attr": {"data_format": {"s": "TkhXQw=="}, "T": {"type": "DT_FLOAT"}}}, {"name": "Generator/EBlock_0/ResBlock_0/SEUnit/fully_connected/Relu", "op": "Relu", "input": ["Generator/EBlock_0/ResBlock_0/SEUnit/fully_connected/BiasAdd"], "attr": {"T": {"type": "DT_FLOAT"}}}, {"name": "Generator/EBlock_0/ResBlock_0/SEUnit/fully_connected_1/MatMul", "op": "MatMul", "input": ["Generator/EBlock_0/ResBlock_0/SEUnit/fully_connected/Relu", "Generator/EBlock_0/ResBlock_0/SEUnit/fully_connected_1/weights"], "attr": {"T": {"type": "DT_FLOAT"}, "transpose_a": {"b": false}, "transpose_b": {"b": false}}}, {"name": "Generator/EBlock_0/ResBlock_0/SEUnit/fully_connected_1/BiasAdd", "op": "BiasAdd", "input": ["Generator/EBlock_0/ResBlock_0/SEUnit/fully_connected_1/MatMul", "Generator/EBlock_0/ResBlock_0/SEUnit/fully_connected_1/biases"], "attr": {"T": {"type": "DT_FLOAT"}, "data_format": {"s": "TkhXQw=="}}}, {"name": "Generator/EBlock_0/ResBlock_0/SEUnit/fully_connected_1/Sigmoid", "op": "Sigmoid", "input": ["Generator/EBlock_0/ResBlock_0/SEUnit/fully_connected_1/BiasAdd"], "attr": {"T": {"type": "DT_FLOAT"}}}, {"name": "Generator/EBlock_0/ResBlock_0/SEUnit/ExpandDims", "op": "ExpandDims", "input": ["Generator/EBlock_0/ResBlock_0/SEUnit/fully_connected_1/Sigmoid", "Generator/DBlock_0/ResBlock_1/SEUnit/ExpandDims/dim"], "attr": {"T": {"type": "DT_FLOAT"}, "Tdim": {"type": "DT_INT32"}}}, {"name": "Generator/EBlock_0/ResBlock_0/SEUnit/ExpandDims_1", "op": "ExpandDims", "input": ["Generator/EBlock_0/ResBlock_0/SEUnit/ExpandDims", "Generator/DBlock_0/ResBlock_1/SEUnit/ExpandDims/dim"], "attr": {"Tdim": {"type": "DT_INT32"}, "T": {"type": "DT_FLOAT"}}}, {"name": "Generator/EBlock_0/ResBlock_0/SEUnit/Mul", "op": "Mul", "input": ["Generator/EBlock_0/ResBlock_0/Conv_1/Conv2D", "Generator/EBlock_0/ResBlock_0/SEUnit/ExpandDims_1"], "attr": {"T": {"type": "DT_FLOAT"}}}, {"name": "Generator/EBlock_0/ResBlock_0/add", "op": "Add", "input": ["Generator/EBlock_0/ResBlock_0/SEUnit/Mul", "Generator/EBlock_0/Conv/Conv2D"], "attr": {"T": {"type": "DT_FLOAT"}}}, {"name": "Generator/EBlock_0/ResBlock_1/Swish/Sigmoid", "op": "Sigmoid", "input": ["Generator/EBlock_0/ResBlock_0/add"], "attr": {"T": {"type": "DT_FLOAT"}}}, {"name": "Generator/EBlock_0/ResBlock_1/Swish/mul", "op": "Mul", "input": ["Generator/EBlock_0/ResBlock_0/add", "Generator/EBlock_0/ResBlock_1/Swish/Sigmoid"], "attr": {"T": {"type": "DT_FLOAT"}}}, {"name": "Generator/EBlock_0/ResBlock_1/Conv/Conv2D", "op": "Conv2D", "input": ["Generator/EBlock_0/ResBlock_1/Swish/mul", "Generator/EBlock_0/ResBlock_1/Conv/weights"], "attr": {"data_format": {"s": "TkhXQw=="}, "strides": {"list": {"i": ["1", "1", "1", "1"]}}, "use_cudnn_on_gpu": {"b": true}, "padding": {"s": "U0FNRQ=="}, "dilations": {"list": {"i": ["1", "1", "1", "1"]}}, "T": {"type": "DT_FLOAT"}}}, {"name": "Generator/EBlock_0/ResBlock_1/Conv/Swish/Sigmoid", "op": "Sigmoid", "input": ["Generator/EBlock_0/ResBlock_1/Conv/Conv2D"], "attr": {"T": {"type": "DT_FLOAT"}}}, {"name": "Generator/EBlock_0/ResBlock_1/Conv/Swish/mul", "op": "Mul", "input": ["Generator/EBlock_0/ResBlock_1/Conv/Conv2D", "Generator/EBlock_0/ResBlock_1/Conv/Swish/Sigmoid"], "attr": {"T": {"type": "DT_FLOAT"}}}, {"name": "Generator/EBlock_0/ResBlock_1/Conv_1/Conv2D", "op": "Conv2D", "input": ["Generator/EBlock_0/ResBlock_1/Conv/Swish/mul", "Generator/EBlock_0/ResBlock_1/Conv_1/weights"], "attr": {"padding": {"s": "U0FNRQ=="}, "dilations": {"list": {"i": ["1", "1", "1", "1"]}}, "T": {"type": "DT_FLOAT"}, "strides": {"list": {"i": ["1", "1", "1", "1"]}}, "data_format": {"s": "TkhXQw=="}, "use_cudnn_on_gpu": {"b": true}}}, {"name": "Generator/EBlock_0/ResBlock_1/SEUnit/Mean", "op": "Mean", "input": ["Generator/EBlock_0/ResBlock_1/Conv_1/Conv2D", "Generator/DBlock_0/ResBlock_1/SEUnit/Mean/reduction_indices"], "attr": {"T": {"type": "DT_FLOAT"}, "keep_dims": {"b": false}, "Tidx": {"type": "DT_INT32"}}}, {"name": "Generator/EBlock_0/ResBlock_1/SEUnit/fully_connected/MatMul", "op": "MatMul", "input": ["Generator/EBlock_0/ResBlock_1/SEUnit/Mean", "Generator/EBlock_0/ResBlock_1/SEUnit/fully_connected/weights"], "attr": {"transpose_a": {"b": false}, "transpose_b": {"b": false}, "T": {"type": "DT_FLOAT"}}}, {"name": "Generator/EBlock_0/ResBlock_1/SEUnit/fully_connected/BiasAdd", "op": "BiasAdd", "input": ["Generator/EBlock_0/ResBlock_1/SEUnit/fully_connected/MatMul", "Generator/EBlock_0/ResBlock_1/SEUnit/fully_connected/biases"], "attr": {"T": {"type": "DT_FLOAT"}, "data_format": {"s": "TkhXQw=="}}}, {"name": "Generator/EBlock_0/ResBlock_1/SEUnit/fully_connected/Relu", "op": "Relu", "input": ["Generator/EBlock_0/ResBlock_1/SEUnit/fully_connected/BiasAdd"], "attr": {"T": {"type": "DT_FLOAT"}}}, {"name": "Generator/EBlock_0/ResBlock_1/SEUnit/fully_connected_1/MatMul", "op": "MatMul", "input": ["Generator/EBlock_0/ResBlock_1/SEUnit/fully_connected/Relu", "Generator/EBlock_0/ResBlock_1/SEUnit/fully_connected_1/weights"], "attr": {"T": {"type": "DT_FLOAT"}, "transpose_a": {"b": false}, "transpose_b": {"b": false}}}, {"name": "Generator/EBlock_0/ResBlock_1/SEUnit/fully_connected_1/BiasAdd", "op": "BiasAdd", "input": ["Generator/EBlock_0/ResBlock_1/SEUnit/fully_connected_1/MatMul", "Generator/EBlock_0/ResBlock_1/SEUnit/fully_connected_1/biases"], "attr": {"data_format": {"s": "TkhXQw=="}, "T": {"type": "DT_FLOAT"}}}, {"name": "Generator/EBlock_0/ResBlock_1/SEUnit/fully_connected_1/Sigmoid", "op": "Sigmoid", "input": ["Generator/EBlock_0/ResBlock_1/SEUnit/fully_connected_1/BiasAdd"], "attr": {"T": {"type": "DT_FLOAT"}}}, {"name": "Generator/EBlock_0/ResBlock_1/SEUnit/ExpandDims", "op": "ExpandDims", "input": ["Generator/EBlock_0/ResBlock_1/SEUnit/fully_connected_1/Sigmoid", "Generator/DBlock_0/ResBlock_1/SEUnit/ExpandDims/dim"], "attr": {"Tdim": {"type": "DT_INT32"}, "T": {"type": "DT_FLOAT"}}}, {"name": "Generator/EBlock_0/ResBlock_1/SEUnit/ExpandDims_1", "op": "ExpandDims", "input": ["Generator/EBlock_0/ResBlock_1/SEUnit/ExpandDims", "Generator/DBlock_0/ResBlock_1/SEUnit/ExpandDims/dim"], "attr": {"Tdim": {"type": "DT_INT32"}, "T": {"type": "DT_FLOAT"}}}, {"name": "Generator/EBlock_0/ResBlock_1/SEUnit/Mul", "op": "Mul", "input": ["Generator/EBlock_0/ResBlock_1/Conv_1/Conv2D", "Generator/EBlock_0/ResBlock_1/SEUnit/ExpandDims_1"], "attr": {"T": {"type": "DT_FLOAT"}}}, {"name": "Generator/EBlock_0/ResBlock_1/add", "op": "Add", "input": ["Generator/EBlock_0/ResBlock_1/SEUnit/Mul", "Generator/EBlock_0/ResBlock_0/add"], "attr": {"T": {"type": "DT_FLOAT"}}}, {"name": "Generator/EBlock_1/Swish/Sigmoid", "op": "Sigmoid", "input": ["Generator/EBlock_0/ResBlock_1/add"], "attr": {"T": {"type": "DT_FLOAT"}}}, {"name": "Generator/EBlock_1/Swish/mul", "op": "Mul", "input": ["Generator/EBlock_0/ResBlock_1/add", "Generator/EBlock_1/Swish/Sigmoid"], "attr": {"T": {"type": "DT_FLOAT"}}}, {"name": "Generator/EBlock_1/Conv/Conv2D", "op": "Conv2D", "input": ["Generator/EBlock_1/Swish/mul", "Generator/EBlock_1/Conv/weights"], "attr": {"T": {"type": "DT_FLOAT"}, "data_format": {"s": "TkhXQw=="}, "strides": {"list": {"i": ["1", "2", "2", "1"]}}, "use_cudnn_on_gpu": {"b": true}, "padding": {"s": "U0FNRQ=="}, "dilations": {"list": {"i": ["1", "1", "1", "1"]}}}}, {"name": "Generator/EBlock_1/ResBlock_0/Swish/Sigmoid", "op": "Sigmoid", "input": ["Generator/EBlock_1/Conv/Conv2D"], "attr": {"T": {"type": "DT_FLOAT"}}}, {"name": "Generator/EBlock_1/ResBlock_0/Swish/mul", "op": "Mul", "input": ["Generator/EBlock_1/Conv/Conv2D", "Generator/EBlock_1/ResBlock_0/Swish/Sigmoid"], "attr": {"T": {"type": "DT_FLOAT"}}}, {"name": "Generator/EBlock_1/ResBlock_0/Conv/Conv2D", "op": "Conv2D", "input": ["Generator/EBlock_1/ResBlock_0/Swish/mul", "Generator/EBlock_1/ResBlock_0/Conv/weights"], "attr": {"dilations": {"list": {"i": ["1", "1", "1", "1"]}}, "T": {"type": "DT_FLOAT"}, "data_format": {"s": "TkhXQw=="}, "strides": {"list": {"i": ["1", "1", "1", "1"]}}, "use_cudnn_on_gpu": {"b": true}, "padding": {"s": "U0FNRQ=="}}}, {"name": "Generator/EBlock_1/ResBlock_0/Conv/Swish/Sigmoid", "op": "Sigmoid", "input": ["Generator/EBlock_1/ResBlock_0/Conv/Conv2D"], "attr": {"T": {"type": "DT_FLOAT"}}}, {"name": "Generator/EBlock_1/ResBlock_0/Conv/Swish/mul", "op": "Mul", "input": ["Generator/EBlock_1/ResBlock_0/Conv/Conv2D", "Generator/EBlock_1/ResBlock_0/Conv/Swish/Sigmoid"], "attr": {"T": {"type": "DT_FLOAT"}}}, {"name": "Generator/EBlock_1/ResBlock_0/Conv_1/Conv2D", "op": "Conv2D", "input": ["Generator/EBlock_1/ResBlock_0/Conv/Swish/mul", "Generator/EBlock_1/ResBlock_0/Conv_1/weights"], "attr": {"dilations": {"list": {"i": ["1", "1", "1", "1"]}}, "T": {"type": "DT_FLOAT"}, "data_format": {"s": "TkhXQw=="}, "strides": {"list": {"i": ["1", "1", "1", "1"]}}, "use_cudnn_on_gpu": {"b": true}, "padding": {"s": "U0FNRQ=="}}}, {"name": "Generator/EBlock_1/ResBlock_0/SEUnit/Mean", "op": "Mean", "input": ["Generator/EBlock_1/ResBlock_0/Conv_1/Conv2D", "Generator/DBlock_0/ResBlock_1/SEUnit/Mean/reduction_indices"], "attr": {"T": {"type": "DT_FLOAT"}, "keep_dims": {"b": false}, "Tidx": {"type": "DT_INT32"}}}, {"name": "Generator/EBlock_1/ResBlock_0/SEUnit/fully_connected/MatMul", "op": "MatMul", "input": ["Generator/EBlock_1/ResBlock_0/SEUnit/Mean", "Generator/EBlock_1/ResBlock_0/SEUnit/fully_connected/weights"], "attr": {"transpose_a": {"b": false}, "transpose_b": {"b": false}, "T": {"type": "DT_FLOAT"}}}, {"name": "Generator/EBlock_1/ResBlock_0/SEUnit/fully_connected/BiasAdd", "op": "BiasAdd", "input": ["Generator/EBlock_1/ResBlock_0/SEUnit/fully_connected/MatMul", "Generator/EBlock_1/ResBlock_0/SEUnit/fully_connected/biases"], "attr": {"T": {"type": "DT_FLOAT"}, "data_format": {"s": "TkhXQw=="}}}, {"name": "Generator/EBlock_1/ResBlock_0/SEUnit/fully_connected/Relu", "op": "Relu", "input": ["Generator/EBlock_1/ResBlock_0/SEUnit/fully_connected/BiasAdd"], "attr": {"T": {"type": "DT_FLOAT"}}}, {"name": "Generator/EBlock_1/ResBlock_0/SEUnit/fully_connected_1/MatMul", "op": "MatMul", "input": ["Generator/EBlock_1/ResBlock_0/SEUnit/fully_connected/Relu", "Generator/EBlock_1/ResBlock_0/SEUnit/fully_connected_1/weights"], "attr": {"transpose_a": {"b": false}, "transpose_b": {"b": false}, "T": {"type": "DT_FLOAT"}}}, {"name": "Generator/EBlock_1/ResBlock_0/SEUnit/fully_connected_1/BiasAdd", "op": "BiasAdd", "input": ["Generator/EBlock_1/ResBlock_0/SEUnit/fully_connected_1/MatMul", "Generator/EBlock_1/ResBlock_0/SEUnit/fully_connected_1/biases"], "attr": {"T": {"type": "DT_FLOAT"}, "data_format": {"s": "TkhXQw=="}}}, {"name": "Generator/EBlock_1/ResBlock_0/SEUnit/fully_connected_1/Sigmoid", "op": "Sigmoid", "input": ["Generator/EBlock_1/ResBlock_0/SEUnit/fully_connected_1/BiasAdd"], "attr": {"T": {"type": "DT_FLOAT"}}}, {"name": "Generator/EBlock_1/ResBlock_0/SEUnit/ExpandDims", "op": "ExpandDims", "input": ["Generator/EBlock_1/ResBlock_0/SEUnit/fully_connected_1/Sigmoid", "Generator/DBlock_0/ResBlock_1/SEUnit/ExpandDims/dim"], "attr": {"Tdim": {"type": "DT_INT32"}, "T": {"type": "DT_FLOAT"}}}, {"name": "Generator/EBlock_1/ResBlock_0/SEUnit/ExpandDims_1", "op": "ExpandDims", "input": ["Generator/EBlock_1/ResBlock_0/SEUnit/ExpandDims", "Generator/DBlock_0/ResBlock_1/SEUnit/ExpandDims/dim"], "attr": {"T": {"type": "DT_FLOAT"}, "Tdim": {"type": "DT_INT32"}}}, {"name": "Generator/EBlock_1/ResBlock_0/SEUnit/Mul", "op": "Mul", "input": ["Generator/EBlock_1/ResBlock_0/Conv_1/Conv2D", "Generator/EBlock_1/ResBlock_0/SEUnit/ExpandDims_1"], "attr": {"T": {"type": "DT_FLOAT"}}}, {"name": "Generator/EBlock_1/ResBlock_0/add", "op": "Add", "input": ["Generator/EBlock_1/ResBlock_0/SEUnit/Mul", "Generator/EBlock_1/Conv/Conv2D"], "attr": {"T": {"type": "DT_FLOAT"}}}, {"name": "Generator/EBlock_1/ResBlock_1/Swish/Sigmoid", "op": "Sigmoid", "input": ["Generator/EBlock_1/ResBlock_0/add"], "attr": {"T": {"type": "DT_FLOAT"}}}, {"name": "Generator/EBlock_1/ResBlock_1/Swish/mul", "op": "Mul", "input": ["Generator/EBlock_1/ResBlock_0/add", "Generator/EBlock_1/ResBlock_1/Swish/Sigmoid"], "attr": {"T": {"type": "DT_FLOAT"}}}, {"name": "Generator/EBlock_1/ResBlock_1/Conv/Conv2D", "op": "Conv2D", "input": ["Generator/EBlock_1/ResBlock_1/Swish/mul", "Generator/EBlock_1/ResBlock_1/Conv/weights"], "attr": {"padding": {"s": "U0FNRQ=="}, "dilations": {"list": {"i": ["1", "1", "1", "1"]}}, "T": {"type": "DT_FLOAT"}, "strides": {"list": {"i": ["1", "1", "1", "1"]}}, "data_format": {"s": "TkhXQw=="}, "use_cudnn_on_gpu": {"b": true}}}, {"name": "Generator/EBlock_1/ResBlock_1/Conv/Swish/Sigmoid", "op": "Sigmoid", "input": ["Generator/EBlock_1/ResBlock_1/Conv/Conv2D"], "attr": {"T": {"type": "DT_FLOAT"}}}, {"name": "Generator/EBlock_1/ResBlock_1/Conv/Swish/mul", "op": "Mul", "input": ["Generator/EBlock_1/ResBlock_1/Conv/Conv2D", "Generator/EBlock_1/ResBlock_1/Conv/Swish/Sigmoid"], "attr": {"T": {"type": "DT_FLOAT"}}}, {"name": "Generator/EBlock_1/ResBlock_1/Conv_1/Conv2D", "op": "Conv2D", "input": ["Generator/EBlock_1/ResBlock_1/Conv/Swish/mul", "Generator/EBlock_1/ResBlock_1/Conv_1/weights"], "attr": {"padding": {"s": "U0FNRQ=="}, "dilations": {"list": {"i": ["1", "1", "1", "1"]}}, "T": {"type": "DT_FLOAT"}, "data_format": {"s": "TkhXQw=="}, "strides": {"list": {"i": ["1", "1", "1", "1"]}}, "use_cudnn_on_gpu": {"b": true}}}, {"name": "Generator/EBlock_1/ResBlock_1/SEUnit/Mean", "op": "Mean", "input": ["Generator/EBlock_1/ResBlock_1/Conv_1/Conv2D", "Generator/DBlock_0/ResBlock_1/SEUnit/Mean/reduction_indices"], "attr": {"keep_dims": {"b": false}, "Tidx": {"type": "DT_INT32"}, "T": {"type": "DT_FLOAT"}}}, {"name": "Generator/EBlock_1/ResBlock_1/SEUnit/fully_connected/MatMul", "op": "MatMul", "input": ["Generator/EBlock_1/ResBlock_1/SEUnit/Mean", "Generator/EBlock_1/ResBlock_1/SEUnit/fully_connected/weights"], "attr": {"T": {"type": "DT_FLOAT"}, "transpose_a": {"b": false}, "transpose_b": {"b": false}}}, {"name": "Generator/EBlock_1/ResBlock_1/SEUnit/fully_connected/BiasAdd", "op": "BiasAdd", "input": ["Generator/EBlock_1/ResBlock_1/SEUnit/fully_connected/MatMul", "Generator/EBlock_1/ResBlock_1/SEUnit/fully_connected/biases"], "attr": {"T": {"type": "DT_FLOAT"}, "data_format": {"s": "TkhXQw=="}}}, {"name": "Generator/EBlock_1/ResBlock_1/SEUnit/fully_connected/Relu", "op": "Relu", "input": ["Generator/EBlock_1/ResBlock_1/SEUnit/fully_connected/BiasAdd"], "attr": {"T": {"type": "DT_FLOAT"}}}, {"name": "Generator/EBlock_1/ResBlock_1/SEUnit/fully_connected_1/MatMul", "op": "MatMul", "input": ["Generator/EBlock_1/ResBlock_1/SEUnit/fully_connected/Relu", "Generator/EBlock_1/ResBlock_1/SEUnit/fully_connected_1/weights"], "attr": {"T": {"type": "DT_FLOAT"}, "transpose_a": {"b": false}, "transpose_b": {"b": false}}}, {"name": "Generator/EBlock_1/ResBlock_1/SEUnit/fully_connected_1/BiasAdd", "op": "BiasAdd", "input": ["Generator/EBlock_1/ResBlock_1/SEUnit/fully_connected_1/MatMul", "Generator/EBlock_1/ResBlock_1/SEUnit/fully_connected_1/biases"], "attr": {"T": {"type": "DT_FLOAT"}, "data_format": {"s": "TkhXQw=="}}}, {"name": "Generator/EBlock_1/ResBlock_1/SEUnit/fully_connected_1/Sigmoid", "op": "Sigmoid", "input": ["Generator/EBlock_1/ResBlock_1/SEUnit/fully_connected_1/BiasAdd"], "attr": {"T": {"type": "DT_FLOAT"}}}, {"name": "Generator/EBlock_1/ResBlock_1/SEUnit/ExpandDims", "op": "ExpandDims", "input": ["Generator/EBlock_1/ResBlock_1/SEUnit/fully_connected_1/Sigmoid", "Generator/DBlock_0/ResBlock_1/SEUnit/ExpandDims/dim"], "attr": {"Tdim": {"type": "DT_INT32"}, "T": {"type": "DT_FLOAT"}}}, {"name": "Generator/EBlock_1/ResBlock_1/SEUnit/ExpandDims_1", "op": "ExpandDims", "input": ["Generator/EBlock_1/ResBlock_1/SEUnit/ExpandDims", "Generator/DBlock_0/ResBlock_1/SEUnit/ExpandDims/dim"], "attr": {"Tdim": {"type": "DT_INT32"}, "T": {"type": "DT_FLOAT"}}}, {"name": "Generator/EBlock_1/ResBlock_1/SEUnit/Mul", "op": "Mul", "input": ["Generator/EBlock_1/ResBlock_1/Conv_1/Conv2D", "Generator/EBlock_1/ResBlock_1/SEUnit/ExpandDims_1"], "attr": {"T": {"type": "DT_FLOAT"}}}, {"name": "Generator/EBlock_1/ResBlock_1/add", "op": "Add", "input": ["Generator/EBlock_1/ResBlock_1/SEUnit/Mul", "Generator/EBlock_1/ResBlock_0/add"], "attr": {"T": {"type": "DT_FLOAT"}}}, {"name": "Generator/EBlock_2/Swish/Sigmoid", "op": "Sigmoid", "input": ["Generator/EBlock_1/ResBlock_1/add"], "attr": {"T": {"type": "DT_FLOAT"}}}, {"name": "Generator/EBlock_2/Swish/mul", "op": "Mul", "input": ["Generator/EBlock_1/ResBlock_1/add", "Generator/EBlock_2/Swish/Sigmoid"], "attr": {"T": {"type": "DT_FLOAT"}}}, {"name": "Generator/EBlock_2/Conv/Conv2D", "op": "Conv2D", "input": ["Generator/EBlock_2/Swish/mul", "Generator/EBlock_2/Conv/weights"], "attr": {"dilations": {"list": {"i": ["1", "1", "1", "1"]}}, "T": {"type": "DT_FLOAT"}, "data_format": {"s": "TkhXQw=="}, "strides": {"list": {"i": ["1", "2", "2", "1"]}}, "use_cudnn_on_gpu": {"b": true}, "padding": {"s": "U0FNRQ=="}}}, {"name": "Generator/EBlock_2/ResBlock_0/Swish/Sigmoid", "op": "Sigmoid", "input": ["Generator/EBlock_2/Conv/Conv2D"], "attr": {"T": {"type": "DT_FLOAT"}}}, {"name": "Generator/EBlock_2/ResBlock_0/Swish/mul", "op": "Mul", "input": ["Generator/EBlock_2/Conv/Conv2D", "Generator/EBlock_2/ResBlock_0/Swish/Sigmoid"], "attr": {"T": {"type": "DT_FLOAT"}}}, {"name": "Generator/EBlock_2/ResBlock_0/Conv/Conv2D", "op": "Conv2D", "input": ["Generator/EBlock_2/ResBlock_0/Swish/mul", "Generator/EBlock_2/ResBlock_0/Conv/weights"], "attr": {"dilations": {"list": {"i": ["1", "1", "1", "1"]}}, "T": {"type": "DT_FLOAT"}, "data_format": {"s": "TkhXQw=="}, "strides": {"list": {"i": ["1", "1", "1", "1"]}}, "use_cudnn_on_gpu": {"b": true}, "padding": {"s": "U0FNRQ=="}}}, {"name": "Generator/EBlock_2/ResBlock_0/Conv/Swish/Sigmoid", "op": "Sigmoid", "input": ["Generator/EBlock_2/ResBlock_0/Conv/Conv2D"], "attr": {"T": {"type": "DT_FLOAT"}}}, {"name": "Generator/EBlock_2/ResBlock_0/Conv/Swish/mul", "op": "Mul", "input": ["Generator/EBlock_2/ResBlock_0/Conv/Conv2D", "Generator/EBlock_2/ResBlock_0/Conv/Swish/Sigmoid"], "attr": {"T": {"type": "DT_FLOAT"}}}, {"name": "Generator/EBlock_2/ResBlock_0/Conv_1/Conv2D", "op": "Conv2D", "input": ["Generator/EBlock_2/ResBlock_0/Conv/Swish/mul", "Generator/EBlock_2/ResBlock_0/Conv_1/weights"], "attr": {"dilations": {"list": {"i": ["1", "1", "1", "1"]}}, "T": {"type": "DT_FLOAT"}, "strides": {"list": {"i": ["1", "1", "1", "1"]}}, "data_format": {"s": "TkhXQw=="}, "use_cudnn_on_gpu": {"b": true}, "padding": {"s": "U0FNRQ=="}}}, {"name": "Generator/EBlock_2/ResBlock_0/SEUnit/Mean", "op": "Mean", "input": ["Generator/EBlock_2/ResBlock_0/Conv_1/Conv2D", "Generator/DBlock_0/ResBlock_1/SEUnit/Mean/reduction_indices"], "attr": {"keep_dims": {"b": false}, "Tidx": {"type": "DT_INT32"}, "T": {"type": "DT_FLOAT"}}}, {"name": "Generator/EBlock_2/ResBlock_0/SEUnit/fully_connected/MatMul", "op": "MatMul", "input": ["Generator/EBlock_2/ResBlock_0/SEUnit/Mean", "Generator/EBlock_2/ResBlock_0/SEUnit/fully_connected/weights"], "attr": {"transpose_a": {"b": false}, "transpose_b": {"b": false}, "T": {"type": "DT_FLOAT"}}}, {"name": "Generator/EBlock_2/ResBlock_0/SEUnit/fully_connected/BiasAdd", "op": "BiasAdd", "input": ["Generator/EBlock_2/ResBlock_0/SEUnit/fully_connected/MatMul", "Generator/EBlock_2/ResBlock_0/SEUnit/fully_connected/biases"], "attr": {"T": {"type": "DT_FLOAT"}, "data_format": {"s": "TkhXQw=="}}}, {"name": "Generator/EBlock_2/ResBlock_0/SEUnit/fully_connected/Relu", "op": "Relu", "input": ["Generator/EBlock_2/ResBlock_0/SEUnit/fully_connected/BiasAdd"], "attr": {"T": {"type": "DT_FLOAT"}}}, {"name": "Generator/EBlock_2/ResBlock_0/SEUnit/fully_connected_1/MatMul", "op": "MatMul", "input": ["Generator/EBlock_2/ResBlock_0/SEUnit/fully_connected/Relu", "Generator/EBlock_2/ResBlock_0/SEUnit/fully_connected_1/weights"], "attr": {"T": {"type": "DT_FLOAT"}, "transpose_a": {"b": false}, "transpose_b": {"b": false}}}, {"name": "Generator/EBlock_2/ResBlock_0/SEUnit/fully_connected_1/BiasAdd", "op": "BiasAdd", "input": ["Generator/EBlock_2/ResBlock_0/SEUnit/fully_connected_1/MatMul", "Generator/EBlock_2/ResBlock_0/SEUnit/fully_connected_1/biases"], "attr": {"T": {"type": "DT_FLOAT"}, "data_format": {"s": "TkhXQw=="}}}, {"name": "Generator/EBlock_2/ResBlock_0/SEUnit/fully_connected_1/Sigmoid", "op": "Sigmoid", "input": ["Generator/EBlock_2/ResBlock_0/SEUnit/fully_connected_1/BiasAdd"], "attr": {"T": {"type": "DT_FLOAT"}}}, {"name": "Generator/EBlock_2/ResBlock_0/SEUnit/ExpandDims", "op": "ExpandDims", "input": ["Generator/EBlock_2/ResBlock_0/SEUnit/fully_connected_1/Sigmoid", "Generator/DBlock_0/ResBlock_1/SEUnit/ExpandDims/dim"], "attr": {"Tdim": {"type": "DT_INT32"}, "T": {"type": "DT_FLOAT"}}}, {"name": "Generator/EBlock_2/ResBlock_0/SEUnit/ExpandDims_1", "op": "ExpandDims", "input": ["Generator/EBlock_2/ResBlock_0/SEUnit/ExpandDims", "Generator/DBlock_0/ResBlock_1/SEUnit/ExpandDims/dim"], "attr": {"Tdim": {"type": "DT_INT32"}, "T": {"type": "DT_FLOAT"}}}, {"name": "Generator/EBlock_2/ResBlock_0/SEUnit/Mul", "op": "Mul", "input": ["Generator/EBlock_2/ResBlock_0/Conv_1/Conv2D", "Generator/EBlock_2/ResBlock_0/SEUnit/ExpandDims_1"], "attr": {"T": {"type": "DT_FLOAT"}}}, {"name": "Generator/EBlock_2/ResBlock_0/add", "op": "Add", "input": ["Generator/EBlock_2/ResBlock_0/SEUnit/Mul", "Generator/EBlock_2/Conv/Conv2D"], "attr": {"T": {"type": "DT_FLOAT"}}}, {"name": "Generator/EBlock_2/ResBlock_1/Swish/Sigmoid", "op": "Sigmoid", "input": ["Generator/EBlock_2/ResBlock_0/add"], "attr": {"T": {"type": "DT_FLOAT"}}}, {"name": "Generator/EBlock_2/ResBlock_1/Swish/mul", "op": "Mul", "input": ["Generator/EBlock_2/ResBlock_0/add", "Generator/EBlock_2/ResBlock_1/Swish/Sigmoid"], "attr": {"T": {"type": "DT_FLOAT"}}}, {"name": "Generator/EBlock_2/ResBlock_1/Conv/Conv2D", "op": "Conv2D", "input": ["Generator/EBlock_2/ResBlock_1/Swish/mul", "Generator/EBlock_2/ResBlock_1/Conv/weights"], "attr": {"T": {"type": "DT_FLOAT"}, "data_format": {"s": "TkhXQw=="}, "strides": {"list": {"i": ["1", "1", "1", "1"]}}, "use_cudnn_on_gpu": {"b": true}, "padding": {"s": "U0FNRQ=="}, "dilations": {"list": {"i": ["1", "1", "1", "1"]}}}}, {"name": "Generator/EBlock_2/ResBlock_1/Conv/Swish/Sigmoid", "op": "Sigmoid", "input": ["Generator/EBlock_2/ResBlock_1/Conv/Conv2D"], "attr": {"T": {"type": "DT_FLOAT"}}}, {"name": "Generator/EBlock_2/ResBlock_1/Conv/Swish/mul", "op": "Mul", "input": ["Generator/EBlock_2/ResBlock_1/Conv/Conv2D", "Generator/EBlock_2/ResBlock_1/Conv/Swish/Sigmoid"], "attr": {"T": {"type": "DT_FLOAT"}}}, {"name": "Generator/EBlock_2/ResBlock_1/Conv_1/Conv2D", "op": "Conv2D", "input": ["Generator/EBlock_2/ResBlock_1/Conv/Swish/mul", "Generator/EBlock_2/ResBlock_1/Conv_1/weights"], "attr": {"padding": {"s": "U0FNRQ=="}, "dilations": {"list": {"i": ["1", "1", "1", "1"]}}, "T": {"type": "DT_FLOAT"}, "data_format": {"s": "TkhXQw=="}, "strides": {"list": {"i": ["1", "1", "1", "1"]}}, "use_cudnn_on_gpu": {"b": true}}}, {"name": "Generator/EBlock_2/ResBlock_1/SEUnit/Mean", "op": "Mean", "input": ["Generator/EBlock_2/ResBlock_1/Conv_1/Conv2D", "Generator/DBlock_0/ResBlock_1/SEUnit/Mean/reduction_indices"], "attr": {"keep_dims": {"b": false}, "Tidx": {"type": "DT_INT32"}, "T": {"type": "DT_FLOAT"}}}, {"name": "Generator/EBlock_2/ResBlock_1/SEUnit/fully_connected/MatMul", "op": "MatMul", "input": ["Generator/EBlock_2/ResBlock_1/SEUnit/Mean", "Generator/EBlock_2/ResBlock_1/SEUnit/fully_connected/weights"], "attr": {"T": {"type": "DT_FLOAT"}, "transpose_a": {"b": false}, "transpose_b": {"b": false}}}, {"name": "Generator/EBlock_2/ResBlock_1/SEUnit/fully_connected/BiasAdd", "op": "BiasAdd", "input": ["Generator/EBlock_2/ResBlock_1/SEUnit/fully_connected/MatMul", "Generator/EBlock_2/ResBlock_1/SEUnit/fully_connected/biases"], "attr": {"data_format": {"s": "TkhXQw=="}, "T": {"type": "DT_FLOAT"}}}, {"name": "Generator/EBlock_2/ResBlock_1/SEUnit/fully_connected/Relu", "op": "Relu", "input": ["Generator/EBlock_2/ResBlock_1/SEUnit/fully_connected/BiasAdd"], "attr": {"T": {"type": "DT_FLOAT"}}}, {"name": "Generator/EBlock_2/ResBlock_1/SEUnit/fully_connected_1/MatMul", "op": "MatMul", "input": ["Generator/EBlock_2/ResBlock_1/SEUnit/fully_connected/Relu", "Generator/EBlock_2/ResBlock_1/SEUnit/fully_connected_1/weights"], "attr": {"transpose_b": {"b": false}, "T": {"type": "DT_FLOAT"}, "transpose_a": {"b": false}}}, {"name": "Generator/EBlock_2/ResBlock_1/SEUnit/fully_connected_1/BiasAdd", "op": "BiasAdd", "input": ["Generator/EBlock_2/ResBlock_1/SEUnit/fully_connected_1/MatMul", "Generator/EBlock_2/ResBlock_1/SEUnit/fully_connected_1/biases"], "attr": {"data_format": {"s": "TkhXQw=="}, "T": {"type": "DT_FLOAT"}}}, {"name": "Generator/EBlock_2/ResBlock_1/SEUnit/fully_connected_1/Sigmoid", "op": "Sigmoid", "input": ["Generator/EBlock_2/ResBlock_1/SEUnit/fully_connected_1/BiasAdd"], "attr": {"T": {"type": "DT_FLOAT"}}}, {"name": "Generator/EBlock_2/ResBlock_1/SEUnit/ExpandDims", "op": "ExpandDims", "input": ["Generator/EBlock_2/ResBlock_1/SEUnit/fully_connected_1/Sigmoid", "Generator/DBlock_0/ResBlock_1/SEUnit/ExpandDims/dim"], "attr": {"Tdim": {"type": "DT_INT32"}, "T": {"type": "DT_FLOAT"}}}, {"name": "Generator/EBlock_2/ResBlock_1/SEUnit/ExpandDims_1", "op": "ExpandDims", "input": ["Generator/EBlock_2/ResBlock_1/SEUnit/ExpandDims", "Generator/DBlock_0/ResBlock_1/SEUnit/ExpandDims/dim"], "attr": {"Tdim": {"type": "DT_INT32"}, "T": {"type": "DT_FLOAT"}}}, {"name": "Generator/EBlock_2/ResBlock_1/SEUnit/Mul", "op": "Mul", "input": ["Generator/EBlock_2/ResBlock_1/Conv_1/Conv2D", "Generator/EBlock_2/ResBlock_1/SEUnit/ExpandDims_1"], "attr": {"T": {"type": "DT_FLOAT"}}}, {"name": "Generator/EBlock_2/ResBlock_1/add", "op": "Add", "input": ["Generator/EBlock_2/ResBlock_1/SEUnit/Mul", "Generator/EBlock_2/ResBlock_0/add"], "attr": {"T": {"type": "DT_FLOAT"}}}, {"name": "Generator/EBlock_3/Swish/Sigmoid", "op": "Sigmoid", "input": ["Generator/EBlock_2/ResBlock_1/add"], "attr": {"T": {"type": "DT_FLOAT"}}}, {"name": "Generator/EBlock_3/Swish/mul", "op": "Mul", "input": ["Generator/EBlock_2/ResBlock_1/add", "Generator/EBlock_3/Swish/Sigmoid"], "attr": {"T": {"type": "DT_FLOAT"}}}, {"name": "Generator/EBlock_3/Conv/Conv2D", "op": "Conv2D", "input": ["Generator/EBlock_3/Swish/mul", "Generator/EBlock_3/Conv/weights"], "attr": {"padding": {"s": "U0FNRQ=="}, "dilations": {"list": {"i": ["1", "1", "1", "1"]}}, "T": {"type": "DT_FLOAT"}, "strides": {"list": {"i": ["1", "2", "2", "1"]}}, "data_format": {"s": "TkhXQw=="}, "use_cudnn_on_gpu": {"b": true}}}, {"name": "Generator/EBlock_3/ResBlock_0/Swish/Sigmoid", "op": "Sigmoid", "input": ["Generator/EBlock_3/Conv/Conv2D"], "attr": {"T": {"type": "DT_FLOAT"}}}, {"name": "Generator/EBlock_3/ResBlock_0/Swish/mul", "op": "Mul", "input": ["Generator/EBlock_3/Conv/Conv2D", "Generator/EBlock_3/ResBlock_0/Swish/Sigmoid"], "attr": {"T": {"type": "DT_FLOAT"}}}, {"name": "Generator/EBlock_3/ResBlock_0/Conv/Conv2D", "op": "Conv2D", "input": ["Generator/EBlock_3/ResBlock_0/Swish/mul", "Generator/EBlock_3/ResBlock_0/Conv/weights"], "attr": {"padding": {"s": "U0FNRQ=="}, "dilations": {"list": {"i": ["1", "1", "1", "1"]}}, "T": {"type": "DT_FLOAT"}, "data_format": {"s": "TkhXQw=="}, "strides": {"list": {"i": ["1", "1", "1", "1"]}}, "use_cudnn_on_gpu": {"b": true}}}, {"name": "Generator/EBlock_3/ResBlock_0/Conv/Swish/Sigmoid", "op": "Sigmoid", "input": ["Generator/EBlock_3/ResBlock_0/Conv/Conv2D"], "attr": {"T": {"type": "DT_FLOAT"}}}, {"name": "Generator/EBlock_3/ResBlock_0/Conv/Swish/mul", "op": "Mul", "input": ["Generator/EBlock_3/ResBlock_0/Conv/Conv2D", "Generator/EBlock_3/ResBlock_0/Conv/Swish/Sigmoid"], "attr": {"T": {"type": "DT_FLOAT"}}}, {"name": "Generator/EBlock_3/ResBlock_0/Conv_1/Conv2D", "op": "Conv2D", "input": ["Generator/EBlock_3/ResBlock_0/Conv/Swish/mul", "Generator/EBlock_3/ResBlock_0/Conv_1/weights"], "attr": {"dilations": {"list": {"i": ["1", "1", "1", "1"]}}, "T": {"type": "DT_FLOAT"}, "data_format": {"s": "TkhXQw=="}, "strides": {"list": {"i": ["1", "1", "1", "1"]}}, "use_cudnn_on_gpu": {"b": true}, "padding": {"s": "U0FNRQ=="}}}, {"name": "Generator/EBlock_3/ResBlock_0/SEUnit/Mean", "op": "Mean", "input": ["Generator/EBlock_3/ResBlock_0/Conv_1/Conv2D", "Generator/DBlock_0/ResBlock_1/SEUnit/Mean/reduction_indices"], "attr": {"keep_dims": {"b": false}, "Tidx": {"type": "DT_INT32"}, "T": {"type": "DT_FLOAT"}}}, {"name": "Generator/EBlock_3/ResBlock_0/SEUnit/fully_connected/MatMul", "op": "MatMul", "input": ["Generator/EBlock_3/ResBlock_0/SEUnit/Mean", "Generator/EBlock_3/ResBlock_0/SEUnit/fully_connected/weights"], "attr": {"T": {"type": "DT_FLOAT"}, "transpose_a": {"b": false}, "transpose_b": {"b": false}}}, {"name": "Generator/EBlock_3/ResBlock_0/SEUnit/fully_connected/BiasAdd", "op": "BiasAdd", "input": ["Generator/EBlock_3/ResBlock_0/SEUnit/fully_connected/MatMul", "Generator/EBlock_3/ResBlock_0/SEUnit/fully_connected/biases"], "attr": {"T": {"type": "DT_FLOAT"}, "data_format": {"s": "TkhXQw=="}}}, {"name": "Generator/EBlock_3/ResBlock_0/SEUnit/fully_connected/Relu", "op": "Relu", "input": ["Generator/EBlock_3/ResBlock_0/SEUnit/fully_connected/BiasAdd"], "attr": {"T": {"type": "DT_FLOAT"}}}, {"name": "Generator/EBlock_3/ResBlock_0/SEUnit/fully_connected_1/MatMul", "op": "MatMul", "input": ["Generator/EBlock_3/ResBlock_0/SEUnit/fully_connected/Relu", "Generator/EBlock_3/ResBlock_0/SEUnit/fully_connected_1/weights"], "attr": {"T": {"type": "DT_FLOAT"}, "transpose_a": {"b": false}, "transpose_b": {"b": false}}}, {"name": "Generator/EBlock_3/ResBlock_0/SEUnit/fully_connected_1/BiasAdd", "op": "BiasAdd", "input": ["Generator/EBlock_3/ResBlock_0/SEUnit/fully_connected_1/MatMul", "Generator/EBlock_3/ResBlock_0/SEUnit/fully_connected_1/biases"], "attr": {"data_format": {"s": "TkhXQw=="}, "T": {"type": "DT_FLOAT"}}}, {"name": "Generator/EBlock_3/ResBlock_0/SEUnit/fully_connected_1/Sigmoid", "op": "Sigmoid", "input": ["Generator/EBlock_3/ResBlock_0/SEUnit/fully_connected_1/BiasAdd"], "attr": {"T": {"type": "DT_FLOAT"}}}, {"name": "Generator/EBlock_3/ResBlock_0/SEUnit/ExpandDims", "op": "ExpandDims", "input": ["Generator/EBlock_3/ResBlock_0/SEUnit/fully_connected_1/Sigmoid", "Generator/DBlock_0/ResBlock_1/SEUnit/ExpandDims/dim"], "attr": {"T": {"type": "DT_FLOAT"}, "Tdim": {"type": "DT_INT32"}}}, {"name": "Generator/EBlock_3/ResBlock_0/SEUnit/ExpandDims_1", "op": "ExpandDims", "input": ["Generator/EBlock_3/ResBlock_0/SEUnit/ExpandDims", "Generator/DBlock_0/ResBlock_1/SEUnit/ExpandDims/dim"], "attr": {"T": {"type": "DT_FLOAT"}, "Tdim": {"type": "DT_INT32"}}}, {"name": "Generator/EBlock_3/ResBlock_0/SEUnit/Mul", "op": "Mul", "input": ["Generator/EBlock_3/ResBlock_0/Conv_1/Conv2D", "Generator/EBlock_3/ResBlock_0/SEUnit/ExpandDims_1"], "attr": {"T": {"type": "DT_FLOAT"}}}, {"name": "Generator/EBlock_3/ResBlock_0/add", "op": "Add", "input": ["Generator/EBlock_3/ResBlock_0/SEUnit/Mul", "Generator/EBlock_3/Conv/Conv2D"], "attr": {"T": {"type": "DT_FLOAT"}}}, {"name": "Generator/EBlock_3/ResBlock_1/Swish/Sigmoid", "op": "Sigmoid", "input": ["Generator/EBlock_3/ResBlock_0/add"], "attr": {"T": {"type": "DT_FLOAT"}}}, {"name": "Generator/EBlock_3/ResBlock_1/Swish/mul", "op": "Mul", "input": ["Generator/EBlock_3/ResBlock_0/add", "Generator/EBlock_3/ResBlock_1/Swish/Sigmoid"], "attr": {"T": {"type": "DT_FLOAT"}}}, {"name": "Generator/EBlock_3/ResBlock_1/Conv/Conv2D", "op": "Conv2D", "input": ["Generator/EBlock_3/ResBlock_1/Swish/mul", "Generator/EBlock_3/ResBlock_1/Conv/weights"], "attr": {"dilations": {"list": {"i": ["1", "1", "1", "1"]}}, "T": {"type": "DT_FLOAT"}, "strides": {"list": {"i": ["1", "1", "1", "1"]}}, "data_format": {"s": "TkhXQw=="}, "use_cudnn_on_gpu": {"b": true}, "padding": {"s": "U0FNRQ=="}}}, {"name": "Generator/EBlock_3/ResBlock_1/Conv/Swish/Sigmoid", "op": "Sigmoid", "input": ["Generator/EBlock_3/ResBlock_1/Conv/Conv2D"], "attr": {"T": {"type": "DT_FLOAT"}}}, {"name": "Generator/EBlock_3/ResBlock_1/Conv/Swish/mul", "op": "Mul", "input": ["Generator/EBlock_3/ResBlock_1/Conv/Conv2D", "Generator/EBlock_3/ResBlock_1/Conv/Swish/Sigmoid"], "attr": {"T": {"type": "DT_FLOAT"}}}, {"name": "Generator/EBlock_3/ResBlock_1/Conv_1/Conv2D", "op": "Conv2D", "input": ["Generator/EBlock_3/ResBlock_1/Conv/Swish/mul", "Generator/EBlock_3/ResBlock_1/Conv_1/weights"], "attr": {"dilations": {"list": {"i": ["1", "1", "1", "1"]}}, "T": {"type": "DT_FLOAT"}, "strides": {"list": {"i": ["1", "1", "1", "1"]}}, "data_format": {"s": "TkhXQw=="}, "use_cudnn_on_gpu": {"b": true}, "padding": {"s": "U0FNRQ=="}}}, {"name": "Generator/EBlock_3/ResBlock_1/SEUnit/Mean", "op": "Mean", "input": ["Generator/EBlock_3/ResBlock_1/Conv_1/Conv2D", "Generator/DBlock_0/ResBlock_1/SEUnit/Mean/reduction_indices"], "attr": {"T": {"type": "DT_FLOAT"}, "keep_dims": {"b": false}, "Tidx": {"type": "DT_INT32"}}}, {"name": "Generator/EBlock_3/ResBlock_1/SEUnit/fully_connected/MatMul", "op": "MatMul", "input": ["Generator/EBlock_3/ResBlock_1/SEUnit/Mean", "Generator/EBlock_3/ResBlock_1/SEUnit/fully_connected/weights"], "attr": {"T": {"type": "DT_FLOAT"}, "transpose_a": {"b": false}, "transpose_b": {"b": false}}}, {"name": "Generator/EBlock_3/ResBlock_1/SEUnit/fully_connected/BiasAdd", "op": "BiasAdd", "input": ["Generator/EBlock_3/ResBlock_1/SEUnit/fully_connected/MatMul", "Generator/EBlock_3/ResBlock_1/SEUnit/fully_connected/biases"], "attr": {"data_format": {"s": "TkhXQw=="}, "T": {"type": "DT_FLOAT"}}}, {"name": "Generator/EBlock_3/ResBlock_1/SEUnit/fully_connected/Relu", "op": "Relu", "input": ["Generator/EBlock_3/ResBlock_1/SEUnit/fully_connected/BiasAdd"], "attr": {"T": {"type": "DT_FLOAT"}}}, {"name": "Generator/EBlock_3/ResBlock_1/SEUnit/fully_connected_1/MatMul", "op": "MatMul", "input": ["Generator/EBlock_3/ResBlock_1/SEUnit/fully_connected/Relu", "Generator/EBlock_3/ResBlock_1/SEUnit/fully_connected_1/weights"], "attr": {"T": {"type": "DT_FLOAT"}, "transpose_a": {"b": false}, "transpose_b": {"b": false}}}, {"name": "Generator/EBlock_3/ResBlock_1/SEUnit/fully_connected_1/BiasAdd", "op": "BiasAdd", "input": ["Generator/EBlock_3/ResBlock_1/SEUnit/fully_connected_1/MatMul", "Generator/EBlock_3/ResBlock_1/SEUnit/fully_connected_1/biases"], "attr": {"T": {"type": "DT_FLOAT"}, "data_format": {"s": "TkhXQw=="}}}, {"name": "Generator/EBlock_3/ResBlock_1/SEUnit/fully_connected_1/Sigmoid", "op": "Sigmoid", "input": ["Generator/EBlock_3/ResBlock_1/SEUnit/fully_connected_1/BiasAdd"], "attr": {"T": {"type": "DT_FLOAT"}}}, {"name": "Generator/EBlock_3/ResBlock_1/SEUnit/ExpandDims", "op": "ExpandDims", "input": ["Generator/EBlock_3/ResBlock_1/SEUnit/fully_connected_1/Sigmoid", "Generator/DBlock_0/ResBlock_1/SEUnit/ExpandDims/dim"], "attr": {"Tdim": {"type": "DT_INT32"}, "T": {"type": "DT_FLOAT"}}}, {"name": "Generator/EBlock_3/ResBlock_1/SEUnit/ExpandDims_1", "op": "ExpandDims", "input": ["Generator/EBlock_3/ResBlock_1/SEUnit/ExpandDims", "Generator/DBlock_0/ResBlock_1/SEUnit/ExpandDims/dim"], "attr": {"T": {"type": "DT_FLOAT"}, "Tdim": {"type": "DT_INT32"}}}, {"name": "Generator/EBlock_3/ResBlock_1/SEUnit/Mul", "op": "Mul", "input": ["Generator/EBlock_3/ResBlock_1/Conv_1/Conv2D", "Generator/EBlock_3/ResBlock_1/SEUnit/ExpandDims_1"], "attr": {"T": {"type": "DT_FLOAT"}}}, {"name": "Generator/EBlock_3/ResBlock_1/add", "op": "Add", "input": ["Generator/EBlock_3/ResBlock_1/SEUnit/Mul", "Generator/EBlock_3/ResBlock_0/add"], "attr": {"T": {"type": "DT_FLOAT"}}}, {"name": "Generator/DBlock_3/Swish/Sigmoid", "op": "Sigmoid", "input": ["Generator/EBlock_3/ResBlock_1/add"], "attr": {"T": {"type": "DT_FLOAT"}}}, {"name": "Generator/DBlock_3/Swish/mul", "op": "Mul", "input": ["Generator/EBlock_3/ResBlock_1/add", "Generator/DBlock_3/Swish/Sigmoid"], "attr": {"T": {"type": "DT_FLOAT"}}}, {"name": "Generator/DBlock_3/Upsample/Shape", "op": "Shape", "input": ["Generator/DBlock_3/Swish/mul"], "attr": {"T": {"type": "DT_FLOAT"}, "out_type": {"type": "DT_INT32"}}}, {"name": "Generator/DBlock_3/Upsample/strided_slice", "op": "StridedSlice", "input": ["Generator/DBlock_3/Upsample/Shape", "Generator/DBlock_3/Upsample/strided_slice/stack", "Generator/DBlock_3/Upsample/strided_slice/stack_1", "Generator/DBlock_3/Upsample/strided_slice/stack_2"], "attr": {"begin_mask": {"i": "0"}, "ellipsis_mask": {"i": "0"}, "new_axis_mask": {"i": "0"}, "end_mask": {"i": "0"}, "Index": {"type": "DT_INT32"}, "T": {"type": "DT_INT32"}, "shrink_axis_mask": {"i": "0"}}}, {"name": "Generator/DBlock_3/Upsample/mul", "op": "Mul", "input": ["Generator/DBlock_3/Upsample/strided_slice", "Generator/DBlock_3/Upsample/mul/y"], "attr": {"T": {"type": "DT_INT32"}}}, {"name": "Generator/DBlock_3/Upsample/ResizeNearestNeighbor", "op": "ResizeNearestNeighbor", "input": ["Generator/DBlock_3/Swish/mul", "Generator/DBlock_3/Upsample/mul"], "attr": {"align_corners": {"b": false}, "T": {"type": "DT_FLOAT"}}}, {"name": "Generator/DBlock_3/Conv/Conv2D", "op": "Conv2D", "input": ["Generator/DBlock_3/Upsample/ResizeNearestNeighbor", "Generator/DBlock_3/Conv/weights"], "attr": {"data_format": {"s": "TkhXQw=="}, "strides": {"list": {"i": ["1", "1", "1", "1"]}}, "use_cudnn_on_gpu": {"b": true}, "padding": {"s": "U0FNRQ=="}, "dilations": {"list": {"i": ["1", "1", "1", "1"]}}, "T": {"type": "DT_FLOAT"}}}, {"name": "Generator/DBlock_3/ResBlock_0/Swish/Sigmoid", "op": "Sigmoid", "input": ["Generator/DBlock_3/Conv/Conv2D"], "attr": {"T": {"type": "DT_FLOAT"}}}, {"name": "Generator/DBlock_3/ResBlock_0/Swish/mul", "op": "Mul", "input": ["Generator/DBlock_3/Conv/Conv2D", "Generator/DBlock_3/ResBlock_0/Swish/Sigmoid"], "attr": {"T": {"type": "DT_FLOAT"}}}, {"name": "Generator/DBlock_3/ResBlock_0/Conv/Conv2D", "op": "Conv2D", "input": ["Generator/DBlock_3/ResBlock_0/Swish/mul", "Generator/DBlock_3/ResBlock_0/Conv/weights"], "attr": {"use_cudnn_on_gpu": {"b": true}, "padding": {"s": "U0FNRQ=="}, "dilations": {"list": {"i": ["1", "1", "1", "1"]}}, "T": {"type": "DT_FLOAT"}, "strides": {"list": {"i": ["1", "1", "1", "1"]}}, "data_format": {"s": "TkhXQw=="}}}, {"name": "Generator/DBlock_3/ResBlock_0/Conv/Swish/Sigmoid", "op": "Sigmoid", "input": ["Generator/DBlock_3/ResBlock_0/Conv/Conv2D"], "attr": {"T": {"type": "DT_FLOAT"}}}, {"name": "Generator/DBlock_3/ResBlock_0/Conv/Swish/mul", "op": "Mul", "input": ["Generator/DBlock_3/ResBlock_0/Conv/Conv2D", "Generator/DBlock_3/ResBlock_0/Conv/Swish/Sigmoid"], "attr": {"T": {"type": "DT_FLOAT"}}}, {"name": "Generator/DBlock_3/ResBlock_0/Conv_1/Conv2D", "op": "Conv2D", "input": ["Generator/DBlock_3/ResBlock_0/Conv/Swish/mul", "Generator/DBlock_3/ResBlock_0/Conv_1/weights"], "attr": {"padding": {"s": "U0FNRQ=="}, "dilations": {"list": {"i": ["1", "1", "1", "1"]}}, "T": {"type": "DT_FLOAT"}, "strides": {"list": {"i": ["1", "1", "1", "1"]}}, "data_format": {"s": "TkhXQw=="}, "use_cudnn_on_gpu": {"b": true}}}, {"name": "Generator/DBlock_3/ResBlock_0/SEUnit/Mean", "op": "Mean", "input": ["Generator/DBlock_3/ResBlock_0/Conv_1/Conv2D", "Generator/DBlock_0/ResBlock_1/SEUnit/Mean/reduction_indices"], "attr": {"keep_dims": {"b": false}, "Tidx": {"type": "DT_INT32"}, "T": {"type": "DT_FLOAT"}}}, {"name": "Generator/DBlock_3/ResBlock_0/SEUnit/fully_connected/MatMul", "op": "MatMul", "input": ["Generator/DBlock_3/ResBlock_0/SEUnit/Mean", "Generator/DBlock_3/ResBlock_0/SEUnit/fully_connected/weights"], "attr": {"transpose_a": {"b": false}, "transpose_b": {"b": false}, "T": {"type": "DT_FLOAT"}}}, {"name": "Generator/DBlock_3/ResBlock_0/SEUnit/fully_connected/BiasAdd", "op": "BiasAdd", "input": ["Generator/DBlock_3/ResBlock_0/SEUnit/fully_connected/MatMul", "Generator/DBlock_3/ResBlock_0/SEUnit/fully_connected/biases"], "attr": {"T": {"type": "DT_FLOAT"}, "data_format": {"s": "TkhXQw=="}}}, {"name": "Generator/DBlock_3/ResBlock_0/SEUnit/fully_connected/Relu", "op": "Relu", "input": ["Generator/DBlock_3/ResBlock_0/SEUnit/fully_connected/BiasAdd"], "attr": {"T": {"type": "DT_FLOAT"}}}, {"name": "Generator/DBlock_3/ResBlock_0/SEUnit/fully_connected_1/MatMul", "op": "MatMul", "input": ["Generator/DBlock_3/ResBlock_0/SEUnit/fully_connected/Relu", "Generator/DBlock_3/ResBlock_0/SEUnit/fully_connected_1/weights"], "attr": {"T": {"type": "DT_FLOAT"}, "transpose_a": {"b": false}, "transpose_b": {"b": false}}}, {"name": "Generator/DBlock_3/ResBlock_0/SEUnit/fully_connected_1/BiasAdd", "op": "BiasAdd", "input": ["Generator/DBlock_3/ResBlock_0/SEUnit/fully_connected_1/MatMul", "Generator/DBlock_3/ResBlock_0/SEUnit/fully_connected_1/biases"], "attr": {"T": {"type": "DT_FLOAT"}, "data_format": {"s": "TkhXQw=="}}}, {"name": "Generator/DBlock_3/ResBlock_0/SEUnit/fully_connected_1/Sigmoid", "op": "Sigmoid", "input": ["Generator/DBlock_3/ResBlock_0/SEUnit/fully_connected_1/BiasAdd"], "attr": {"T": {"type": "DT_FLOAT"}}}, {"name": "Generator/DBlock_3/ResBlock_0/SEUnit/ExpandDims", "op": "ExpandDims", "input": ["Generator/DBlock_3/ResBlock_0/SEUnit/fully_connected_1/Sigmoid", "Generator/DBlock_0/ResBlock_1/SEUnit/ExpandDims/dim"], "attr": {"Tdim": {"type": "DT_INT32"}, "T": {"type": "DT_FLOAT"}}}, {"name": "Generator/DBlock_3/ResBlock_0/SEUnit/ExpandDims_1", "op": "ExpandDims", "input": ["Generator/DBlock_3/ResBlock_0/SEUnit/ExpandDims", "Generator/DBlock_0/ResBlock_1/SEUnit/ExpandDims/dim"], "attr": {"Tdim": {"type": "DT_INT32"}, "T": {"type": "DT_FLOAT"}}}, {"name": "Generator/DBlock_3/ResBlock_0/SEUnit/Mul", "op": "Mul", "input": ["Generator/DBlock_3/ResBlock_0/Conv_1/Conv2D", "Generator/DBlock_3/ResBlock_0/SEUnit/ExpandDims_1"], "attr": {"T": {"type": "DT_FLOAT"}}}, {"name": "Generator/DBlock_3/ResBlock_0/add", "op": "Add", "input": ["Generator/DBlock_3/ResBlock_0/SEUnit/Mul", "Generator/DBlock_3/Conv/Conv2D"], "attr": {"T": {"type": "DT_FLOAT"}}}, {"name": "Generator/DBlock_3/ResBlock_1/Swish/Sigmoid", "op": "Sigmoid", "input": ["Generator/DBlock_3/ResBlock_0/add"], "attr": {"T": {"type": "DT_FLOAT"}}}, {"name": "Generator/DBlock_3/ResBlock_1/Swish/mul", "op": "Mul", "input": ["Generator/DBlock_3/ResBlock_0/add", "Generator/DBlock_3/ResBlock_1/Swish/Sigmoid"], "attr": {"T": {"type": "DT_FLOAT"}}}, {"name": "Generator/DBlock_3/ResBlock_1/Conv/Conv2D", "op": "Conv2D", "input": ["Generator/DBlock_3/ResBlock_1/Swish/mul", "Generator/DBlock_3/ResBlock_1/Conv/weights"], "attr": {"dilations": {"list": {"i": ["1", "1", "1", "1"]}}, "T": {"type": "DT_FLOAT"}, "data_format": {"s": "TkhXQw=="}, "strides": {"list": {"i": ["1", "1", "1", "1"]}}, "use_cudnn_on_gpu": {"b": true}, "padding": {"s": "U0FNRQ=="}}}, {"name": "Generator/DBlock_3/ResBlock_1/Conv/Swish/Sigmoid", "op": "Sigmoid", "input": ["Generator/DBlock_3/ResBlock_1/Conv/Conv2D"], "attr": {"T": {"type": "DT_FLOAT"}}}, {"name": "Generator/DBlock_3/ResBlock_1/Conv/Swish/mul", "op": "Mul", "input": ["Generator/DBlock_3/ResBlock_1/Conv/Conv2D", "Generator/DBlock_3/ResBlock_1/Conv/Swish/Sigmoid"], "attr": {"T": {"type": "DT_FLOAT"}}}, {"name": "Generator/DBlock_3/ResBlock_1/Conv_1/Conv2D", "op": "Conv2D", "input": ["Generator/DBlock_3/ResBlock_1/Conv/Swish/mul", "Generator/DBlock_3/ResBlock_1/Conv_1/weights"], "attr": {"dilations": {"list": {"i": ["1", "1", "1", "1"]}}, "T": {"type": "DT_FLOAT"}, "data_format": {"s": "TkhXQw=="}, "strides": {"list": {"i": ["1", "1", "1", "1"]}}, "use_cudnn_on_gpu": {"b": true}, "padding": {"s": "U0FNRQ=="}}}, {"name": "Generator/DBlock_3/ResBlock_1/SEUnit/Mean", "op": "Mean", "input": ["Generator/DBlock_3/ResBlock_1/Conv_1/Conv2D", "Generator/DBlock_0/ResBlock_1/SEUnit/Mean/reduction_indices"], "attr": {"T": {"type": "DT_FLOAT"}, "keep_dims": {"b": false}, "Tidx": {"type": "DT_INT32"}}}, {"name": "Generator/DBlock_3/ResBlock_1/SEUnit/fully_connected/MatMul", "op": "MatMul", "input": ["Generator/DBlock_3/ResBlock_1/SEUnit/Mean", "Generator/DBlock_3/ResBlock_1/SEUnit/fully_connected/weights"], "attr": {"T": {"type": "DT_FLOAT"}, "transpose_a": {"b": false}, "transpose_b": {"b": false}}}, {"name": "Generator/DBlock_3/ResBlock_1/SEUnit/fully_connected/BiasAdd", "op": "BiasAdd", "input": ["Generator/DBlock_3/ResBlock_1/SEUnit/fully_connected/MatMul", "Generator/DBlock_3/ResBlock_1/SEUnit/fully_connected/biases"], "attr": {"T": {"type": "DT_FLOAT"}, "data_format": {"s": "TkhXQw=="}}}, {"name": "Generator/DBlock_3/ResBlock_1/SEUnit/fully_connected/Relu", "op": "Relu", "input": ["Generator/DBlock_3/ResBlock_1/SEUnit/fully_connected/BiasAdd"], "attr": {"T": {"type": "DT_FLOAT"}}}, {"name": "Generator/DBlock_3/ResBlock_1/SEUnit/fully_connected_1/MatMul", "op": "MatMul", "input": ["Generator/DBlock_3/ResBlock_1/SEUnit/fully_connected/Relu", "Generator/DBlock_3/ResBlock_1/SEUnit/fully_connected_1/weights"], "attr": {"transpose_a": {"b": false}, "transpose_b": {"b": false}, "T": {"type": "DT_FLOAT"}}}, {"name": "Generator/DBlock_3/ResBlock_1/SEUnit/fully_connected_1/BiasAdd", "op": "BiasAdd", "input": ["Generator/DBlock_3/ResBlock_1/SEUnit/fully_connected_1/MatMul", "Generator/DBlock_3/ResBlock_1/SEUnit/fully_connected_1/biases"], "attr": {"T": {"type": "DT_FLOAT"}, "data_format": {"s": "TkhXQw=="}}}, {"name": "Generator/DBlock_3/ResBlock_1/SEUnit/fully_connected_1/Sigmoid", "op": "Sigmoid", "input": ["Generator/DBlock_3/ResBlock_1/SEUnit/fully_connected_1/BiasAdd"], "attr": {"T": {"type": "DT_FLOAT"}}}, {"name": "Generator/DBlock_3/ResBlock_1/SEUnit/ExpandDims", "op": "ExpandDims", "input": ["Generator/DBlock_3/ResBlock_1/SEUnit/fully_connected_1/Sigmoid", "Generator/DBlock_0/ResBlock_1/SEUnit/ExpandDims/dim"], "attr": {"Tdim": {"type": "DT_INT32"}, "T": {"type": "DT_FLOAT"}}}, {"name": "Generator/DBlock_3/ResBlock_1/SEUnit/ExpandDims_1", "op": "ExpandDims", "input": ["Generator/DBlock_3/ResBlock_1/SEUnit/ExpandDims", "Generator/DBlock_0/ResBlock_1/SEUnit/ExpandDims/dim"], "attr": {"T": {"type": "DT_FLOAT"}, "Tdim": {"type": "DT_INT32"}}}, {"name": "Generator/DBlock_3/ResBlock_1/SEUnit/Mul", "op": "Mul", "input": ["Generator/DBlock_3/ResBlock_1/Conv_1/Conv2D", "Generator/DBlock_3/ResBlock_1/SEUnit/ExpandDims_1"], "attr": {"T": {"type": "DT_FLOAT"}}}, {"name": "Generator/DBlock_3/ResBlock_1/add", "op": "Add", "input": ["Generator/DBlock_3/ResBlock_1/SEUnit/Mul", "Generator/DBlock_3/ResBlock_0/add"], "attr": {"T": {"type": "DT_FLOAT"}}}, {"name": "Generator/DBlock_3/add", "op": "Add", "input": ["Generator/DBlock_3/ResBlock_1/add", "Generator/EBlock_2/ResBlock_1/add"], "attr": {"T": {"type": "DT_FLOAT"}}}, {"name": "Generator/DBlock_2/Swish/Sigmoid", "op": "Sigmoid", "input": ["Generator/DBlock_3/add"], "attr": {"T": {"type": "DT_FLOAT"}}}, {"name": "Generator/DBlock_2/Swish/mul", "op": "Mul", "input": ["Generator/DBlock_3/add", "Generator/DBlock_2/Swish/Sigmoid"], "attr": {"T": {"type": "DT_FLOAT"}}}, {"name": "Generator/DBlock_2/Upsample/Shape", "op": "Shape", "input": ["Generator/DBlock_2/Swish/mul"], "attr": {"T": {"type": "DT_FLOAT"}, "out_type": {"type": "DT_INT32"}}}, {"name": "Generator/DBlock_2/Upsample/strided_slice", "op": "StridedSlice", "input": ["Generator/DBlock_2/Upsample/Shape", "Generator/DBlock_3/Upsample/strided_slice/stack", "Generator/DBlock_3/Upsample/strided_slice/stack_1", "Generator/DBlock_3/Upsample/strided_slice/stack_2"], "attr": {"ellipsis_mask": {"i": "0"}, "begin_mask": {"i": "0"}, "new_axis_mask": {"i": "0"}, "end_mask": {"i": "0"}, "Index": {"type": "DT_INT32"}, "T": {"type": "DT_INT32"}, "shrink_axis_mask": {"i": "0"}}}, {"name": "Generator/DBlock_2/Upsample/mul", "op": "Mul", "input": ["Generator/DBlock_2/Upsample/strided_slice", "Generator/DBlock_3/Upsample/mul/y"], "attr": {"T": {"type": "DT_INT32"}}}, {"name": "Generator/DBlock_2/Upsample/ResizeNearestNeighbor", "op": "ResizeNearestNeighbor", "input": ["Generator/DBlock_2/Swish/mul", "Generator/DBlock_2/Upsample/mul"], "attr": {"align_corners": {"b": false}, "T": {"type": "DT_FLOAT"}}}, {"name": "Generator/DBlock_2/Conv/Conv2D", "op": "Conv2D", "input": ["Generator/DBlock_2/Upsample/ResizeNearestNeighbor", "Generator/DBlock_2/Conv/weights"], "attr": {"padding": {"s": "U0FNRQ=="}, "dilations": {"list": {"i": ["1", "1", "1", "1"]}}, "T": {"type": "DT_FLOAT"}, "strides": {"list": {"i": ["1", "1", "1", "1"]}}, "data_format": {"s": "TkhXQw=="}, "use_cudnn_on_gpu": {"b": true}}}, {"name": "Generator/DBlock_2/ResBlock_0/Swish/Sigmoid", "op": "Sigmoid", "input": ["Generator/DBlock_2/Conv/Conv2D"], "attr": {"T": {"type": "DT_FLOAT"}}}, {"name": "Generator/DBlock_2/ResBlock_0/Swish/mul", "op": "Mul", "input": ["Generator/DBlock_2/Conv/Conv2D", "Generator/DBlock_2/ResBlock_0/Swish/Sigmoid"], "attr": {"T": {"type": "DT_FLOAT"}}}, {"name": "Generator/DBlock_2/ResBlock_0/Conv/Conv2D", "op": "Conv2D", "input": ["Generator/DBlock_2/ResBlock_0/Swish/mul", "Generator/DBlock_2/ResBlock_0/Conv/weights"], "attr": {"padding": {"s": "U0FNRQ=="}, "dilations": {"list": {"i": ["1", "1", "1", "1"]}}, "T": {"type": "DT_FLOAT"}, "data_format": {"s": "TkhXQw=="}, "strides": {"list": {"i": ["1", "1", "1", "1"]}}, "use_cudnn_on_gpu": {"b": true}}}, {"name": "Generator/DBlock_2/ResBlock_0/Conv/Swish/Sigmoid", "op": "Sigmoid", "input": ["Generator/DBlock_2/ResBlock_0/Conv/Conv2D"], "attr": {"T": {"type": "DT_FLOAT"}}}, {"name": "Generator/DBlock_2/ResBlock_0/Conv/Swish/mul", "op": "Mul", "input": ["Generator/DBlock_2/ResBlock_0/Conv/Conv2D", "Generator/DBlock_2/ResBlock_0/Conv/Swish/Sigmoid"], "attr": {"T": {"type": "DT_FLOAT"}}}, {"name": "Generator/DBlock_2/ResBlock_0/Conv_1/Conv2D", "op": "Conv2D", "input": ["Generator/DBlock_2/ResBlock_0/Conv/Swish/mul", "Generator/DBlock_2/ResBlock_0/Conv_1/weights"], "attr": {"dilations": {"list": {"i": ["1", "1", "1", "1"]}}, "T": {"type": "DT_FLOAT"}, "data_format": {"s": "TkhXQw=="}, "strides": {"list": {"i": ["1", "1", "1", "1"]}}, "use_cudnn_on_gpu": {"b": true}, "padding": {"s": "U0FNRQ=="}}}, {"name": "Generator/DBlock_2/ResBlock_0/SEUnit/Mean", "op": "Mean", "input": ["Generator/DBlock_2/ResBlock_0/Conv_1/Conv2D", "Generator/DBlock_0/ResBlock_1/SEUnit/Mean/reduction_indices"], "attr": {"keep_dims": {"b": false}, "Tidx": {"type": "DT_INT32"}, "T": {"type": "DT_FLOAT"}}}, {"name": "Generator/DBlock_2/ResBlock_0/SEUnit/fully_connected/MatMul", "op": "MatMul", "input": ["Generator/DBlock_2/ResBlock_0/SEUnit/Mean", "Generator/DBlock_2/ResBlock_0/SEUnit/fully_connected/weights"], "attr": {"T": {"type": "DT_FLOAT"}, "transpose_a": {"b": false}, "transpose_b": {"b": false}}}, {"name": "Generator/DBlock_2/ResBlock_0/SEUnit/fully_connected/BiasAdd", "op": "BiasAdd", "input": ["Generator/DBlock_2/ResBlock_0/SEUnit/fully_connected/MatMul", "Generator/DBlock_2/ResBlock_0/SEUnit/fully_connected/biases"], "attr": {"T": {"type": "DT_FLOAT"}, "data_format": {"s": "TkhXQw=="}}}, {"name": "Generator/DBlock_2/ResBlock_0/SEUnit/fully_connected/Relu", "op": "Relu", "input": ["Generator/DBlock_2/ResBlock_0/SEUnit/fully_connected/BiasAdd"], "attr": {"T": {"type": "DT_FLOAT"}}}, {"name": "Generator/DBlock_2/ResBlock_0/SEUnit/fully_connected_1/MatMul", "op": "MatMul", "input": ["Generator/DBlock_2/ResBlock_0/SEUnit/fully_connected/Relu", "Generator/DBlock_2/ResBlock_0/SEUnit/fully_connected_1/weights"], "attr": {"transpose_a": {"b": false}, "transpose_b": {"b": false}, "T": {"type": "DT_FLOAT"}}}, {"name": "Generator/DBlock_2/ResBlock_0/SEUnit/fully_connected_1/BiasAdd", "op": "BiasAdd", "input": ["Generator/DBlock_2/ResBlock_0/SEUnit/fully_connected_1/MatMul", "Generator/DBlock_2/ResBlock_0/SEUnit/fully_connected_1/biases"], "attr": {"T": {"type": "DT_FLOAT"}, "data_format": {"s": "TkhXQw=="}}}, {"name": "Generator/DBlock_2/ResBlock_0/SEUnit/fully_connected_1/Sigmoid", "op": "Sigmoid", "input": ["Generator/DBlock_2/ResBlock_0/SEUnit/fully_connected_1/BiasAdd"], "attr": {"T": {"type": "DT_FLOAT"}}}, {"name": "Generator/DBlock_2/ResBlock_0/SEUnit/ExpandDims", "op": "ExpandDims", "input": ["Generator/DBlock_2/ResBlock_0/SEUnit/fully_connected_1/Sigmoid", "Generator/DBlock_0/ResBlock_1/SEUnit/ExpandDims/dim"], "attr": {"Tdim": {"type": "DT_INT32"}, "T": {"type": "DT_FLOAT"}}}, {"name": "Generator/DBlock_2/ResBlock_0/SEUnit/ExpandDims_1", "op": "ExpandDims", "input": ["Generator/DBlock_2/ResBlock_0/SEUnit/ExpandDims", "Generator/DBlock_0/ResBlock_1/SEUnit/ExpandDims/dim"], "attr": {"T": {"type": "DT_FLOAT"}, "Tdim": {"type": "DT_INT32"}}}, {"name": "Generator/DBlock_2/ResBlock_0/SEUnit/Mul", "op": "Mul", "input": ["Generator/DBlock_2/ResBlock_0/Conv_1/Conv2D", "Generator/DBlock_2/ResBlock_0/SEUnit/ExpandDims_1"], "attr": {"T": {"type": "DT_FLOAT"}}}, {"name": "Generator/DBlock_2/ResBlock_0/add", "op": "Add", "input": ["Generator/DBlock_2/ResBlock_0/SEUnit/Mul", "Generator/DBlock_2/Conv/Conv2D"], "attr": {"T": {"type": "DT_FLOAT"}}}, {"name": "Generator/DBlock_2/ResBlock_1/Swish/Sigmoid", "op": "Sigmoid", "input": ["Generator/DBlock_2/ResBlock_0/add"], "attr": {"T": {"type": "DT_FLOAT"}}}, {"name": "Generator/DBlock_2/ResBlock_1/Swish/mul", "op": "Mul", "input": ["Generator/DBlock_2/ResBlock_0/add", "Generator/DBlock_2/ResBlock_1/Swish/Sigmoid"], "attr": {"T": {"type": "DT_FLOAT"}}}, {"name": "Generator/DBlock_2/ResBlock_1/Conv/Conv2D", "op": "Conv2D", "input": ["Generator/DBlock_2/ResBlock_1/Swish/mul", "Generator/DBlock_2/ResBlock_1/Conv/weights"], "attr": {"dilations": {"list": {"i": ["1", "1", "1", "1"]}}, "T": {"type": "DT_FLOAT"}, "strides": {"list": {"i": ["1", "1", "1", "1"]}}, "data_format": {"s": "TkhXQw=="}, "use_cudnn_on_gpu": {"b": true}, "padding": {"s": "U0FNRQ=="}}}, {"name": "Generator/DBlock_2/ResBlock_1/Conv/Swish/Sigmoid", "op": "Sigmoid", "input": ["Generator/DBlock_2/ResBlock_1/Conv/Conv2D"], "attr": {"T": {"type": "DT_FLOAT"}}}, {"name": "Generator/DBlock_2/ResBlock_1/Conv/Swish/mul", "op": "Mul", "input": ["Generator/DBlock_2/ResBlock_1/Conv/Conv2D", "Generator/DBlock_2/ResBlock_1/Conv/Swish/Sigmoid"], "attr": {"T": {"type": "DT_FLOAT"}}}, {"name": "Generator/DBlock_2/ResBlock_1/Conv_1/Conv2D", "op": "Conv2D", "input": ["Generator/DBlock_2/ResBlock_1/Conv/Swish/mul", "Generator/DBlock_2/ResBlock_1/Conv_1/weights"], "attr": {"data_format": {"s": "TkhXQw=="}, "strides": {"list": {"i": ["1", "1", "1", "1"]}}, "use_cudnn_on_gpu": {"b": true}, "padding": {"s": "U0FNRQ=="}, "dilations": {"list": {"i": ["1", "1", "1", "1"]}}, "T": {"type": "DT_FLOAT"}}}, {"name": "Generator/DBlock_2/ResBlock_1/SEUnit/Mean", "op": "Mean", "input": ["Generator/DBlock_2/ResBlock_1/Conv_1/Conv2D", "Generator/DBlock_0/ResBlock_1/SEUnit/Mean/reduction_indices"], "attr": {"keep_dims": {"b": false}, "Tidx": {"type": "DT_INT32"}, "T": {"type": "DT_FLOAT"}}}, {"name": "Generator/DBlock_2/ResBlock_1/SEUnit/fully_connected/MatMul", "op": "MatMul", "input": ["Generator/DBlock_2/ResBlock_1/SEUnit/Mean", "Generator/DBlock_2/ResBlock_1/SEUnit/fully_connected/weights"], "attr": {"transpose_a": {"b": false}, "transpose_b": {"b": false}, "T": {"type": "DT_FLOAT"}}}, {"name": "Generator/DBlock_2/ResBlock_1/SEUnit/fully_connected/BiasAdd", "op": "BiasAdd", "input": ["Generator/DBlock_2/ResBlock_1/SEUnit/fully_connected/MatMul", "Generator/DBlock_2/ResBlock_1/SEUnit/fully_connected/biases"], "attr": {"data_format": {"s": "TkhXQw=="}, "T": {"type": "DT_FLOAT"}}}, {"name": "Generator/DBlock_2/ResBlock_1/SEUnit/fully_connected/Relu", "op": "Relu", "input": ["Generator/DBlock_2/ResBlock_1/SEUnit/fully_connected/BiasAdd"], "attr": {"T": {"type": "DT_FLOAT"}}}, {"name": "Generator/DBlock_2/ResBlock_1/SEUnit/fully_connected_1/MatMul", "op": "MatMul", "input": ["Generator/DBlock_2/ResBlock_1/SEUnit/fully_connected/Relu", "Generator/DBlock_2/ResBlock_1/SEUnit/fully_connected_1/weights"], "attr": {"T": {"type": "DT_FLOAT"}, "transpose_a": {"b": false}, "transpose_b": {"b": false}}}, {"name": "Generator/DBlock_2/ResBlock_1/SEUnit/fully_connected_1/BiasAdd", "op": "BiasAdd", "input": ["Generator/DBlock_2/ResBlock_1/SEUnit/fully_connected_1/MatMul", "Generator/DBlock_2/ResBlock_1/SEUnit/fully_connected_1/biases"], "attr": {"T": {"type": "DT_FLOAT"}, "data_format": {"s": "TkhXQw=="}}}, {"name": "Generator/DBlock_2/ResBlock_1/SEUnit/fully_connected_1/Sigmoid", "op": "Sigmoid", "input": ["Generator/DBlock_2/ResBlock_1/SEUnit/fully_connected_1/BiasAdd"], "attr": {"T": {"type": "DT_FLOAT"}}}, {"name": "Generator/DBlock_2/ResBlock_1/SEUnit/ExpandDims", "op": "ExpandDims", "input": ["Generator/DBlock_2/ResBlock_1/SEUnit/fully_connected_1/Sigmoid", "Generator/DBlock_0/ResBlock_1/SEUnit/ExpandDims/dim"], "attr": {"Tdim": {"type": "DT_INT32"}, "T": {"type": "DT_FLOAT"}}}, {"name": "Generator/DBlock_2/ResBlock_1/SEUnit/ExpandDims_1", "op": "ExpandDims", "input": ["Generator/DBlock_2/ResBlock_1/SEUnit/ExpandDims", "Generator/DBlock_0/ResBlock_1/SEUnit/ExpandDims/dim"], "attr": {"T": {"type": "DT_FLOAT"}, "Tdim": {"type": "DT_INT32"}}}, {"name": "Generator/DBlock_2/ResBlock_1/SEUnit/Mul", "op": "Mul", "input": ["Generator/DBlock_2/ResBlock_1/Conv_1/Conv2D", "Generator/DBlock_2/ResBlock_1/SEUnit/ExpandDims_1"], "attr": {"T": {"type": "DT_FLOAT"}}}, {"name": "Generator/DBlock_2/ResBlock_1/add", "op": "Add", "input": ["Generator/DBlock_2/ResBlock_1/SEUnit/Mul", "Generator/DBlock_2/ResBlock_0/add"], "attr": {"T": {"type": "DT_FLOAT"}}}, {"name": "Generator/DBlock_2/add", "op": "Add", "input": ["Generator/DBlock_2/ResBlock_1/add", "Generator/EBlock_1/ResBlock_1/add"], "attr": {"T": {"type": "DT_FLOAT"}}}, {"name": "Generator/DBlock_1/Swish/Sigmoid", "op": "Sigmoid", "input": ["Generator/DBlock_2/add"], "attr": {"T": {"type": "DT_FLOAT"}}}, {"name": "Generator/DBlock_1/Swish/mul", "op": "Mul", "input": ["Generator/DBlock_2/add", "Generator/DBlock_1/Swish/Sigmoid"], "attr": {"T": {"type": "DT_FLOAT"}}}, {"name": "Generator/DBlock_1/Upsample/Shape", "op": "Shape", "input": ["Generator/DBlock_1/Swish/mul"], "attr": {"T": {"type": "DT_FLOAT"}, "out_type": {"type": "DT_INT32"}}}, {"name": "Generator/DBlock_1/Upsample/strided_slice", "op": "StridedSlice", "input": ["Generator/DBlock_1/Upsample/Shape", "Generator/DBlock_3/Upsample/strided_slice/stack", "Generator/DBlock_3/Upsample/strided_slice/stack_1", "Generator/DBlock_3/Upsample/strided_slice/stack_2"], "attr": {"begin_mask": {"i": "0"}, "ellipsis_mask": {"i": "0"}, "new_axis_mask": {"i": "0"}, "end_mask": {"i": "0"}, "T": {"type": "DT_INT32"}, "Index": {"type": "DT_INT32"}, "shrink_axis_mask": {"i": "0"}}}, {"name": "Generator/DBlock_1/Upsample/mul", "op": "Mul", "input": ["Generator/DBlock_1/Upsample/strided_slice", "Generator/DBlock_3/Upsample/mul/y"], "attr": {"T": {"type": "DT_INT32"}}}, {"name": "Generator/DBlock_1/Upsample/ResizeNearestNeighbor", "op": "ResizeNearestNeighbor", "input": ["Generator/DBlock_1/Swish/mul", "Generator/DBlock_1/Upsample/mul"], "attr": {"align_corners": {"b": false}, "T": {"type": "DT_FLOAT"}}}, {"name": "Generator/DBlock_1/Conv/Conv2D", "op": "Conv2D", "input": ["Generator/DBlock_1/Upsample/ResizeNearestNeighbor", "Generator/DBlock_1/Conv/weights"], "attr": {"dilations": {"list": {"i": ["1", "1", "1", "1"]}}, "T": {"type": "DT_FLOAT"}, "data_format": {"s": "TkhXQw=="}, "strides": {"list": {"i": ["1", "1", "1", "1"]}}, "use_cudnn_on_gpu": {"b": true}, "padding": {"s": "U0FNRQ=="}}}, {"name": "Generator/DBlock_1/ResBlock_0/Swish/Sigmoid", "op": "Sigmoid", "input": ["Generator/DBlock_1/Conv/Conv2D"], "attr": {"T": {"type": "DT_FLOAT"}}}, {"name": "Generator/DBlock_1/ResBlock_0/Swish/mul", "op": "Mul", "input": ["Generator/DBlock_1/Conv/Conv2D", "Generator/DBlock_1/ResBlock_0/Swish/Sigmoid"], "attr": {"T": {"type": "DT_FLOAT"}}}, {"name": "Generator/DBlock_1/ResBlock_0/Conv/Conv2D", "op": "Conv2D", "input": ["Generator/DBlock_1/ResBlock_0/Swish/mul", "Generator/DBlock_1/ResBlock_0/Conv/weights"], "attr": {"dilations": {"list": {"i": ["1", "1", "1", "1"]}}, "T": {"type": "DT_FLOAT"}, "strides": {"list": {"i": ["1", "1", "1", "1"]}}, "data_format": {"s": "TkhXQw=="}, "use_cudnn_on_gpu": {"b": true}, "padding": {"s": "U0FNRQ=="}}}, {"name": "Generator/DBlock_1/ResBlock_0/Conv/Swish/Sigmoid", "op": "Sigmoid", "input": ["Generator/DBlock_1/ResBlock_0/Conv/Conv2D"], "attr": {"T": {"type": "DT_FLOAT"}}}, {"name": "Generator/DBlock_1/ResBlock_0/Conv/Swish/mul", "op": "Mul", "input": ["Generator/DBlock_1/ResBlock_0/Conv/Conv2D", "Generator/DBlock_1/ResBlock_0/Conv/Swish/Sigmoid"], "attr": {"T": {"type": "DT_FLOAT"}}}, {"name": "Generator/DBlock_1/ResBlock_0/Conv_1/Conv2D", "op": "Conv2D", "input": ["Generator/DBlock_1/ResBlock_0/Conv/Swish/mul", "Generator/DBlock_1/ResBlock_0/Conv_1/weights"], "attr": {"dilations": {"list": {"i": ["1", "1", "1", "1"]}}, "T": {"type": "DT_FLOAT"}, "data_format": {"s": "TkhXQw=="}, "strides": {"list": {"i": ["1", "1", "1", "1"]}}, "use_cudnn_on_gpu": {"b": true}, "padding": {"s": "U0FNRQ=="}}}, {"name": "Generator/DBlock_1/ResBlock_0/SEUnit/Mean", "op": "Mean", "input": ["Generator/DBlock_1/ResBlock_0/Conv_1/Conv2D", "Generator/DBlock_0/ResBlock_1/SEUnit/Mean/reduction_indices"], "attr": {"keep_dims": {"b": false}, "Tidx": {"type": "DT_INT32"}, "T": {"type": "DT_FLOAT"}}}, {"name": "Generator/DBlock_1/ResBlock_0/SEUnit/fully_connected/MatMul", "op": "MatMul", "input": ["Generator/DBlock_1/ResBlock_0/SEUnit/Mean", "Generator/DBlock_1/ResBlock_0/SEUnit/fully_connected/weights"], "attr": {"transpose_b": {"b": false}, "T": {"type": "DT_FLOAT"}, "transpose_a": {"b": false}}}, {"name": "Generator/DBlock_1/ResBlock_0/SEUnit/fully_connected/BiasAdd", "op": "BiasAdd", "input": ["Generator/DBlock_1/ResBlock_0/SEUnit/fully_connected/MatMul", "Generator/DBlock_1/ResBlock_0/SEUnit/fully_connected/biases"], "attr": {"T": {"type": "DT_FLOAT"}, "data_format": {"s": "TkhXQw=="}}}, {"name": "Generator/DBlock_1/ResBlock_0/SEUnit/fully_connected/Relu", "op": "Relu", "input": ["Generator/DBlock_1/ResBlock_0/SEUnit/fully_connected/BiasAdd"], "attr": {"T": {"type": "DT_FLOAT"}}}, {"name": "Generator/DBlock_1/ResBlock_0/SEUnit/fully_connected_1/MatMul", "op": "MatMul", "input": ["Generator/DBlock_1/ResBlock_0/SEUnit/fully_connected/Relu", "Generator/DBlock_1/ResBlock_0/SEUnit/fully_connected_1/weights"], "attr": {"T": {"type": "DT_FLOAT"}, "transpose_a": {"b": false}, "transpose_b": {"b": false}}}, {"name": "Generator/DBlock_1/ResBlock_0/SEUnit/fully_connected_1/BiasAdd", "op": "BiasAdd", "input": ["Generator/DBlock_1/ResBlock_0/SEUnit/fully_connected_1/MatMul", "Generator/DBlock_1/ResBlock_0/SEUnit/fully_connected_1/biases"], "attr": {"T": {"type": "DT_FLOAT"}, "data_format": {"s": "TkhXQw=="}}}, {"name": "Generator/DBlock_1/ResBlock_0/SEUnit/fully_connected_1/Sigmoid", "op": "Sigmoid", "input": ["Generator/DBlock_1/ResBlock_0/SEUnit/fully_connected_1/BiasAdd"], "attr": {"T": {"type": "DT_FLOAT"}}}, {"name": "Generator/DBlock_1/ResBlock_0/SEUnit/ExpandDims", "op": "ExpandDims", "input": ["Generator/DBlock_1/ResBlock_0/SEUnit/fully_connected_1/Sigmoid", "Generator/DBlock_0/ResBlock_1/SEUnit/ExpandDims/dim"], "attr": {"Tdim": {"type": "DT_INT32"}, "T": {"type": "DT_FLOAT"}}}, {"name": "Generator/DBlock_1/ResBlock_0/SEUnit/ExpandDims_1", "op": "ExpandDims", "input": ["Generator/DBlock_1/ResBlock_0/SEUnit/ExpandDims", "Generator/DBlock_0/ResBlock_1/SEUnit/ExpandDims/dim"], "attr": {"Tdim": {"type": "DT_INT32"}, "T": {"type": "DT_FLOAT"}}}, {"name": "Generator/DBlock_1/ResBlock_0/SEUnit/Mul", "op": "Mul", "input": ["Generator/DBlock_1/ResBlock_0/Conv_1/Conv2D", "Generator/DBlock_1/ResBlock_0/SEUnit/ExpandDims_1"], "attr": {"T": {"type": "DT_FLOAT"}}}, {"name": "Generator/DBlock_1/ResBlock_0/add", "op": "Add", "input": ["Generator/DBlock_1/ResBlock_0/SEUnit/Mul", "Generator/DBlock_1/Conv/Conv2D"], "attr": {"T": {"type": "DT_FLOAT"}}}, {"name": "Generator/DBlock_1/ResBlock_1/Swish/Sigmoid", "op": "Sigmoid", "input": ["Generator/DBlock_1/ResBlock_0/add"], "attr": {"T": {"type": "DT_FLOAT"}}}, {"name": "Generator/DBlock_1/ResBlock_1/Swish/mul", "op": "Mul", "input": ["Generator/DBlock_1/ResBlock_0/add", "Generator/DBlock_1/ResBlock_1/Swish/Sigmoid"], "attr": {"T": {"type": "DT_FLOAT"}}}, {"name": "Generator/DBlock_1/ResBlock_1/Conv/Conv2D", "op": "Conv2D", "input": ["Generator/DBlock_1/ResBlock_1/Swish/mul", "Generator/DBlock_1/ResBlock_1/Conv/weights"], "attr": {"padding": {"s": "U0FNRQ=="}, "dilations": {"list": {"i": ["1", "1", "1", "1"]}}, "T": {"type": "DT_FLOAT"}, "strides": {"list": {"i": ["1", "1", "1", "1"]}}, "data_format": {"s": "TkhXQw=="}, "use_cudnn_on_gpu": {"b": true}}}, {"name": "Generator/DBlock_1/ResBlock_1/Conv/Swish/Sigmoid", "op": "Sigmoid", "input": ["Generator/DBlock_1/ResBlock_1/Conv/Conv2D"], "attr": {"T": {"type": "DT_FLOAT"}}}, {"name": "Generator/DBlock_1/ResBlock_1/Conv/Swish/mul", "op": "Mul", "input": ["Generator/DBlock_1/ResBlock_1/Conv/Conv2D", "Generator/DBlock_1/ResBlock_1/Conv/Swish/Sigmoid"], "attr": {"T": {"type": "DT_FLOAT"}}}, {"name": "Generator/DBlock_1/ResBlock_1/Conv_1/Conv2D", "op": "Conv2D", "input": ["Generator/DBlock_1/ResBlock_1/Conv/Swish/mul", "Generator/DBlock_1/ResBlock_1/Conv_1/weights"], "attr": {"T": {"type": "DT_FLOAT"}, "strides": {"list": {"i": ["1", "1", "1", "1"]}}, "data_format": {"s": "TkhXQw=="}, "use_cudnn_on_gpu": {"b": true}, "padding": {"s": "U0FNRQ=="}, "dilations": {"list": {"i": ["1", "1", "1", "1"]}}}}, {"name": "Generator/DBlock_1/ResBlock_1/SEUnit/Mean", "op": "Mean", "input": ["Generator/DBlock_1/ResBlock_1/Conv_1/Conv2D", "Generator/DBlock_0/ResBlock_1/SEUnit/Mean/reduction_indices"], "attr": {"T": {"type": "DT_FLOAT"}, "keep_dims": {"b": false}, "Tidx": {"type": "DT_INT32"}}}, {"name": "Generator/DBlock_1/ResBlock_1/SEUnit/fully_connected/MatMul", "op": "MatMul", "input": ["Generator/DBlock_1/ResBlock_1/SEUnit/Mean", "Generator/DBlock_1/ResBlock_1/SEUnit/fully_connected/weights"], "attr": {"T": {"type": "DT_FLOAT"}, "transpose_a": {"b": false}, "transpose_b": {"b": false}}}, {"name": "Generator/DBlock_1/ResBlock_1/SEUnit/fully_connected/BiasAdd", "op": "BiasAdd", "input": ["Generator/DBlock_1/ResBlock_1/SEUnit/fully_connected/MatMul", "Generator/DBlock_1/ResBlock_1/SEUnit/fully_connected/biases"], "attr": {"T": {"type": "DT_FLOAT"}, "data_format": {"s": "TkhXQw=="}}}, {"name": "Generator/DBlock_1/ResBlock_1/SEUnit/fully_connected/Relu", "op": "Relu", "input": ["Generator/DBlock_1/ResBlock_1/SEUnit/fully_connected/BiasAdd"], "attr": {"T": {"type": "DT_FLOAT"}}}, {"name": "Generator/DBlock_1/ResBlock_1/SEUnit/fully_connected_1/MatMul", "op": "MatMul", "input": ["Generator/DBlock_1/ResBlock_1/SEUnit/fully_connected/Relu", "Generator/DBlock_1/ResBlock_1/SEUnit/fully_connected_1/weights"], "attr": {"transpose_b": {"b": false}, "T": {"type": "DT_FLOAT"}, "transpose_a": {"b": false}}}, {"name": "Generator/DBlock_1/ResBlock_1/SEUnit/fully_connected_1/BiasAdd", "op": "BiasAdd", "input": ["Generator/DBlock_1/ResBlock_1/SEUnit/fully_connected_1/MatMul", "Generator/DBlock_1/ResBlock_1/SEUnit/fully_connected_1/biases"], "attr": {"T": {"type": "DT_FLOAT"}, "data_format": {"s": "TkhXQw=="}}}, {"name": "Generator/DBlock_1/ResBlock_1/SEUnit/fully_connected_1/Sigmoid", "op": "Sigmoid", "input": ["Generator/DBlock_1/ResBlock_1/SEUnit/fully_connected_1/BiasAdd"], "attr": {"T": {"type": "DT_FLOAT"}}}, {"name": "Generator/DBlock_1/ResBlock_1/SEUnit/ExpandDims", "op": "ExpandDims", "input": ["Generator/DBlock_1/ResBlock_1/SEUnit/fully_connected_1/Sigmoid", "Generator/DBlock_0/ResBlock_1/SEUnit/ExpandDims/dim"], "attr": {"Tdim": {"type": "DT_INT32"}, "T": {"type": "DT_FLOAT"}}}, {"name": "Generator/DBlock_1/ResBlock_1/SEUnit/ExpandDims_1", "op": "ExpandDims", "input": ["Generator/DBlock_1/ResBlock_1/SEUnit/ExpandDims", "Generator/DBlock_0/ResBlock_1/SEUnit/ExpandDims/dim"], "attr": {"Tdim": {"type": "DT_INT32"}, "T": {"type": "DT_FLOAT"}}}, {"name": "Generator/DBlock_1/ResBlock_1/SEUnit/Mul", "op": "Mul", "input": ["Generator/DBlock_1/ResBlock_1/Conv_1/Conv2D", "Generator/DBlock_1/ResBlock_1/SEUnit/ExpandDims_1"], "attr": {"T": {"type": "DT_FLOAT"}}}, {"name": "Generator/DBlock_1/ResBlock_1/add", "op": "Add", "input": ["Generator/DBlock_1/ResBlock_1/SEUnit/Mul", "Generator/DBlock_1/ResBlock_0/add"], "attr": {"T": {"type": "DT_FLOAT"}}}, {"name": "Generator/DBlock_1/add", "op": "Add", "input": ["Generator/DBlock_1/ResBlock_1/add", "Generator/EBlock_0/ResBlock_1/add"], "attr": {"T": {"type": "DT_FLOAT"}}}, {"name": "Generator/DBlock_0/Swish/Sigmoid", "op": "Sigmoid", "input": ["Generator/DBlock_1/add"], "attr": {"T": {"type": "DT_FLOAT"}}}, {"name": "Generator/DBlock_0/Swish/mul", "op": "Mul", "input": ["Generator/DBlock_1/add", "Generator/DBlock_0/Swish/Sigmoid"], "attr": {"T": {"type": "DT_FLOAT"}}}, {"name": "Generator/DBlock_0/Conv/Conv2D", "op": "Conv2D", "input": ["Generator/DBlock_0/Swish/mul", "Generator/DBlock_0/Conv/weights"], "attr": {"dilations": {"list": {"i": ["1", "1", "1", "1"]}}, "T": {"type": "DT_FLOAT"}, "strides": {"list": {"i": ["1", "1", "1", "1"]}}, "data_format": {"s": "TkhXQw=="}, "use_cudnn_on_gpu": {"b": true}, "padding": {"s": "U0FNRQ=="}}}, {"name": "Generator/DBlock_0/ResBlock_0/Swish/Sigmoid", "op": "Sigmoid", "input": ["Generator/DBlock_0/Conv/Conv2D"], "attr": {"T": {"type": "DT_FLOAT"}}}, {"name": "Generator/DBlock_0/ResBlock_0/Swish/mul", "op": "Mul", "input": ["Generator/DBlock_0/Conv/Conv2D", "Generator/DBlock_0/ResBlock_0/Swish/Sigmoid"], "attr": {"T": {"type": "DT_FLOAT"}}}, {"name": "Generator/DBlock_0/ResBlock_0/Conv/Conv2D", "op": "Conv2D", "input": ["Generator/DBlock_0/ResBlock_0/Swish/mul", "Generator/DBlock_0/ResBlock_0/Conv/weights"], "attr": {"dilations": {"list": {"i": ["1", "1", "1", "1"]}}, "T": {"type": "DT_FLOAT"}, "data_format": {"s": "TkhXQw=="}, "strides": {"list": {"i": ["1", "1", "1", "1"]}}, "use_cudnn_on_gpu": {"b": true}, "padding": {"s": "U0FNRQ=="}}}, {"name": "Generator/DBlock_0/ResBlock_0/Conv/Swish/Sigmoid", "op": "Sigmoid", "input": ["Generator/DBlock_0/ResBlock_0/Conv/Conv2D"], "attr": {"T": {"type": "DT_FLOAT"}}}, {"name": "Generator/DBlock_0/ResBlock_0/Conv/Swish/mul", "op": "Mul", "input": ["Generator/DBlock_0/ResBlock_0/Conv/Conv2D", "Generator/DBlock_0/ResBlock_0/Conv/Swish/Sigmoid"], "attr": {"T": {"type": "DT_FLOAT"}}}, {"name": "Generator/DBlock_0/ResBlock_0/Conv_1/Conv2D", "op": "Conv2D", "input": ["Generator/DBlock_0/ResBlock_0/Conv/Swish/mul", "Generator/DBlock_0/ResBlock_0/Conv_1/weights"], "attr": {"data_format": {"s": "TkhXQw=="}, "strides": {"list": {"i": ["1", "1", "1", "1"]}}, "use_cudnn_on_gpu": {"b": true}, "padding": {"s": "U0FNRQ=="}, "dilations": {"list": {"i": ["1", "1", "1", "1"]}}, "T": {"type": "DT_FLOAT"}}}, {"name": "Generator/DBlock_0/ResBlock_0/SEUnit/Mean", "op": "Mean", "input": ["Generator/DBlock_0/ResBlock_0/Conv_1/Conv2D", "Generator/DBlock_0/ResBlock_1/SEUnit/Mean/reduction_indices"], "attr": {"keep_dims": {"b": false}, "Tidx": {"type": "DT_INT32"}, "T": {"type": "DT_FLOAT"}}}, {"name": "Generator/DBlock_0/ResBlock_0/SEUnit/fully_connected/MatMul", "op": "MatMul", "input": ["Generator/DBlock_0/ResBlock_0/SEUnit/Mean", "Generator/DBlock_0/ResBlock_0/SEUnit/fully_connected/weights"], "attr": {"T": {"type": "DT_FLOAT"}, "transpose_a": {"b": false}, "transpose_b": {"b": false}}}, {"name": "Generator/DBlock_0/ResBlock_0/SEUnit/fully_connected/BiasAdd", "op": "BiasAdd", "input": ["Generator/DBlock_0/ResBlock_0/SEUnit/fully_connected/MatMul", "Generator/DBlock_0/ResBlock_0/SEUnit/fully_connected/biases"], "attr": {"T": {"type": "DT_FLOAT"}, "data_format": {"s": "TkhXQw=="}}}, {"name": "Generator/DBlock_0/ResBlock_0/SEUnit/fully_connected/Relu", "op": "Relu", "input": ["Generator/DBlock_0/ResBlock_0/SEUnit/fully_connected/BiasAdd"], "attr": {"T": {"type": "DT_FLOAT"}}}, {"name": "Generator/DBlock_0/ResBlock_0/SEUnit/fully_connected_1/MatMul", "op": "MatMul", "input": ["Generator/DBlock_0/ResBlock_0/SEUnit/fully_connected/Relu", "Generator/DBlock_0/ResBlock_0/SEUnit/fully_connected_1/weights"], "attr": {"transpose_b": {"b": false}, "T": {"type": "DT_FLOAT"}, "transpose_a": {"b": false}}}, {"name": "Generator/DBlock_0/ResBlock_0/SEUnit/fully_connected_1/BiasAdd", "op": "BiasAdd", "input": ["Generator/DBlock_0/ResBlock_0/SEUnit/fully_connected_1/MatMul", "Generator/DBlock_0/ResBlock_0/SEUnit/fully_connected_1/biases"], "attr": {"data_format": {"s": "TkhXQw=="}, "T": {"type": "DT_FLOAT"}}}, {"name": "Generator/DBlock_0/ResBlock_0/SEUnit/fully_connected_1/Sigmoid", "op": "Sigmoid", "input": ["Generator/DBlock_0/ResBlock_0/SEUnit/fully_connected_1/BiasAdd"], "attr": {"T": {"type": "DT_FLOAT"}}}, {"name": "Generator/DBlock_0/ResBlock_0/SEUnit/ExpandDims", "op": "ExpandDims", "input": ["Generator/DBlock_0/ResBlock_0/SEUnit/fully_connected_1/Sigmoid", "Generator/DBlock_0/ResBlock_1/SEUnit/ExpandDims/dim"], "attr": {"Tdim": {"type": "DT_INT32"}, "T": {"type": "DT_FLOAT"}}}, {"name": "Generator/DBlock_0/ResBlock_0/SEUnit/ExpandDims_1", "op": "ExpandDims", "input": ["Generator/DBlock_0/ResBlock_0/SEUnit/ExpandDims", "Generator/DBlock_0/ResBlock_1/SEUnit/ExpandDims/dim"], "attr": {"T": {"type": "DT_FLOAT"}, "Tdim": {"type": "DT_INT32"}}}, {"name": "Generator/DBlock_0/ResBlock_0/SEUnit/Mul", "op": "Mul", "input": ["Generator/DBlock_0/ResBlock_0/Conv_1/Conv2D", "Generator/DBlock_0/ResBlock_0/SEUnit/ExpandDims_1"], "attr": {"T": {"type": "DT_FLOAT"}}}, {"name": "Generator/DBlock_0/ResBlock_0/add", "op": "Add", "input": ["Generator/DBlock_0/ResBlock_0/SEUnit/Mul", "Generator/DBlock_0/Conv/Conv2D"], "attr": {"T": {"type": "DT_FLOAT"}}}, {"name": "Generator/DBlock_0/ResBlock_1/Swish/Sigmoid", "op": "Sigmoid", "input": ["Generator/DBlock_0/ResBlock_0/add"], "attr": {"T": {"type": "DT_FLOAT"}}}, {"name": "Generator/DBlock_0/ResBlock_1/Swish/mul", "op": "Mul", "input": ["Generator/DBlock_0/ResBlock_0/add", "Generator/DBlock_0/ResBlock_1/Swish/Sigmoid"], "attr": {"T": {"type": "DT_FLOAT"}}}, {"name": "Generator/DBlock_0/ResBlock_1/Conv/Conv2D", "op": "Conv2D", "input": ["Generator/DBlock_0/ResBlock_1/Swish/mul", "Generator/DBlock_0/ResBlock_1/Conv/weights"], "attr": {"use_cudnn_on_gpu": {"b": true}, "padding": {"s": "U0FNRQ=="}, "dilations": {"list": {"i": ["1", "1", "1", "1"]}}, "T": {"type": "DT_FLOAT"}, "data_format": {"s": "TkhXQw=="}, "strides": {"list": {"i": ["1", "1", "1", "1"]}}}}, {"name": "Generator/DBlock_0/ResBlock_1/Conv/Swish/Sigmoid", "op": "Sigmoid", "input": ["Generator/DBlock_0/ResBlock_1/Conv/Conv2D"], "attr": {"T": {"type": "DT_FLOAT"}}}, {"name": "Generator/DBlock_0/ResBlock_1/Conv/Swish/mul", "op": "Mul", "input": ["Generator/DBlock_0/ResBlock_1/Conv/Conv2D", "Generator/DBlock_0/ResBlock_1/Conv/Swish/Sigmoid"], "attr": {"T": {"type": "DT_FLOAT"}}}, {"name": "Generator/DBlock_0/ResBlock_1/Conv_1/Conv2D", "op": "Conv2D", "input": ["Generator/DBlock_0/ResBlock_1/Conv/Swish/mul", "Generator/DBlock_0/ResBlock_1/Conv_1/weights"], "attr": {"strides": {"list": {"i": ["1", "1", "1", "1"]}}, "data_format": {"s": "TkhXQw=="}, "use_cudnn_on_gpu": {"b": true}, "padding": {"s": "U0FNRQ=="}, "dilations": {"list": {"i": ["1", "1", "1", "1"]}}, "T": {"type": "DT_FLOAT"}}}, {"name": "Generator/DBlock_0/ResBlock_1/SEUnit/Mean", "op": "Mean", "input": ["Generator/DBlock_0/ResBlock_1/Conv_1/Conv2D", "Generator/DBlock_0/ResBlock_1/SEUnit/Mean/reduction_indices"], "attr": {"T": {"type": "DT_FLOAT"}, "keep_dims": {"b": false}, "Tidx": {"type": "DT_INT32"}}}, {"name": "Generator/DBlock_0/ResBlock_1/SEUnit/fully_connected/MatMul", "op": "MatMul", "input": ["Generator/DBlock_0/ResBlock_1/SEUnit/Mean", "Generator/DBlock_0/ResBlock_1/SEUnit/fully_connected/weights"], "attr": {"T": {"type": "DT_FLOAT"}, "transpose_a": {"b": false}, "transpose_b": {"b": false}}}, {"name": "Generator/DBlock_0/ResBlock_1/SEUnit/fully_connected/BiasAdd", "op": "BiasAdd", "input": ["Generator/DBlock_0/ResBlock_1/SEUnit/fully_connected/MatMul", "Generator/DBlock_0/ResBlock_1/SEUnit/fully_connected/biases"], "attr": {"data_format": {"s": "TkhXQw=="}, "T": {"type": "DT_FLOAT"}}}, {"name": "Generator/DBlock_0/ResBlock_1/SEUnit/fully_connected/Relu", "op": "Relu", "input": ["Generator/DBlock_0/ResBlock_1/SEUnit/fully_connected/BiasAdd"], "attr": {"T": {"type": "DT_FLOAT"}}}, {"name": "Generator/DBlock_0/ResBlock_1/SEUnit/fully_connected_1/MatMul", "op": "MatMul", "input": ["Generator/DBlock_0/ResBlock_1/SEUnit/fully_connected/Relu", "Generator/DBlock_0/ResBlock_1/SEUnit/fully_connected_1/weights"], "attr": {"T": {"type": "DT_FLOAT"}, "transpose_a": {"b": false}, "transpose_b": {"b": false}}}, {"name": "Generator/DBlock_0/ResBlock_1/SEUnit/fully_connected_1/BiasAdd", "op": "BiasAdd", "input": ["Generator/DBlock_0/ResBlock_1/SEUnit/fully_connected_1/MatMul", "Generator/DBlock_0/ResBlock_1/SEUnit/fully_connected_1/biases"], "attr": {"data_format": {"s": "TkhXQw=="}, "T": {"type": "DT_FLOAT"}}}, {"name": "Generator/DBlock_0/ResBlock_1/SEUnit/fully_connected_1/Sigmoid", "op": "Sigmoid", "input": ["Generator/DBlock_0/ResBlock_1/SEUnit/fully_connected_1/BiasAdd"], "attr": {"T": {"type": "DT_FLOAT"}}}, {"name": "Generator/DBlock_0/ResBlock_1/SEUnit/ExpandDims", "op": "ExpandDims", "input": ["Generator/DBlock_0/ResBlock_1/SEUnit/fully_connected_1/Sigmoid", "Generator/DBlock_0/ResBlock_1/SEUnit/ExpandDims/dim"], "attr": {"Tdim": {"type": "DT_INT32"}, "T": {"type": "DT_FLOAT"}}}, {"name": "Generator/DBlock_0/ResBlock_1/SEUnit/ExpandDims_1", "op": "ExpandDims", "input": ["Generator/DBlock_0/ResBlock_1/SEUnit/ExpandDims", "Generator/DBlock_0/ResBlock_1/SEUnit/ExpandDims/dim"], "attr": {"Tdim": {"type": "DT_INT32"}, "T": {"type": "DT_FLOAT"}}}, {"name": "Generator/DBlock_0/ResBlock_1/SEUnit/Mul", "op": "Mul", "input": ["Generator/DBlock_0/ResBlock_1/Conv_1/Conv2D", "Generator/DBlock_0/ResBlock_1/SEUnit/ExpandDims_1"], "attr": {"T": {"type": "DT_FLOAT"}}}, {"name": "Generator/DBlock_0/ResBlock_1/add", "op": "Add", "input": ["Generator/DBlock_0/ResBlock_1/SEUnit/Mul", "Generator/DBlock_0/ResBlock_0/add"], "attr": {"T": {"type": "DT_FLOAT"}}}, {"name": "Generator/DBlock_0/add", "op": "Add", "input": ["Generator/DBlock_0/ResBlock_1/add", "Generator/InBlock/Conv/BiasAdd"], "attr": {"T": {"type": "DT_FLOAT"}}}, {"name": "Generator/OutBlock/Swish/Sigmoid", "op": "Sigmoid", "input": ["Generator/DBlock_0/add"], "attr": {"T": {"type": "DT_FLOAT"}}}, {"name": "Generator/OutBlock/Swish/mul", "op": "Mul", "input": ["Generator/DBlock_0/add", "Generator/OutBlock/Swish/Sigmoid"], "attr": {"T": {"type": "DT_FLOAT"}}}, {"name": "Generator/OutBlock/Conv/Conv2D", "op": "Conv2D", "input": ["Generator/OutBlock/Swish/mul", "Generator/OutBlock/Conv/weights"], "attr": {"use_cudnn_on_gpu": {"b": true}, "padding": {"s": "U0FNRQ=="}, "dilations": {"list": {"i": ["1", "1", "1", "1"]}}, "T": {"type": "DT_FLOAT"}, "strides": {"list": {"i": ["1", "1", "1", "1"]}}, "data_format": {"s": "TkhXQw=="}}}, {"name": "Generator/OutBlock/Conv/BiasAdd", "op": "BiasAdd", "input": ["Generator/OutBlock/Conv/Conv2D", "Generator/OutBlock/Conv/biases"], "attr": {"T": {"type": "DT_FLOAT"}, "data_format": {"s": "TkhXQw=="}}}, {"name": "add", "op": "Add", "input": ["Generator/OutBlock/add", "Generator/OutBlock/Conv/BiasAdd"], "attr": {"T": {"type": "DT_FLOAT"}}}, {"name": "Output", "op": "Mul", "input": ["add", "Output/y"], "attr": {"T": {"type": "DT_FLOAT"}}}], "library": {}, "versions": {}}, "weightsManifest": [{"paths": ["group1-shard1of3", "group1-shard2of3", "group1-shard3of3"], "weights": [{"name": "Output/y", "shape": [], "dtype": "float32"}, {"name": "Generator/OutBlock/Conv/biases", "shape": [3], "dtype": "float32"}, {"name": "Generator/OutBlock/Conv/weights", "shape": [3, 3, 32, 3], "dtype": "float32"}, {"name": "Generator/InBlock/Conv/biases", "shape": [32], "dtype": "float32"}, {"name": "Generator/InBlock/Conv/weights", "shape": [3, 3, 3, 32], "dtype": "float32"}, {"name": "sub/y", "shape": [], "dtype": "float32"}, {"name": "mul/y", "shape": [], "dtype": "float32"}, {"name": "Generator/DBlock_0/Conv/weights", "shape": [3, 3, 32, 32], "dtype": "float32"}, {"name": "Generator/EBlock_0/Conv/weights", "shape": [3, 3, 32, 32], "dtype": "float32"}, {"name": "Generator/DBlock_0/ResBlock_1/SEUnit/ExpandDims/dim", "shape": [], "dtype": "int32"}, {"name": "Generator/EBlock_0/ResBlock_0/SEUnit/fully_connected_1/biases", "shape": [32], "dtype": "float32"}, {"name": "Generator/EBlock_0/ResBlock_0/SEUnit/fully_connected_1/weights", "shape": [32, 32], "dtype": "float32"}, {"name": "Generator/EBlock_0/ResBlock_0/SEUnit/fully_connected/biases", "shape": [32], "dtype": "float32"}, {"name": "Generator/EBlock_0/ResBlock_0/SEUnit/fully_connected/weights", "shape": [32, 32], "dtype": "float32"}, {"name": "Generator/DBlock_0/ResBlock_1/SEUnit/Mean/reduction_indices", "shape": [2], "dtype": "int32"}, {"name": "Generator/EBlock_0/ResBlock_0/Conv_1/weights", "shape": [3, 3, 32, 32], "dtype": "float32"}, {"name": "Generator/EBlock_0/ResBlock_0/Conv/weights", "shape": [3, 3, 32, 32], "dtype": "float32"}, {"name": "Generator/EBlock_0/ResBlock_1/SEUnit/fully_connected_1/biases", "shape": [32], "dtype": "float32"}, {"name": "Generator/EBlock_0/ResBlock_1/SEUnit/fully_connected_1/weights", "shape": [32, 32], "dtype": "float32"}, {"name": "Generator/EBlock_0/ResBlock_1/SEUnit/fully_connected/biases", "shape": [32], "dtype": "float32"}, {"name": "Generator/EBlock_0/ResBlock_1/SEUnit/fully_connected/weights", "shape": [32, 32], "dtype": "float32"}, {"name": "Generator/EBlock_0/ResBlock_1/Conv_1/weights", "shape": [3, 3, 32, 32], "dtype": "float32"}, {"name": "Generator/EBlock_0/ResBlock_1/Conv/weights", "shape": [3, 3, 32, 32], "dtype": "float32"}, {"name": "Generator/DBlock_1/Conv/weights", "shape": [3, 3, 64, 32], "dtype": "float32"}, {"name": "Generator/DBlock_3/Upsample/mul/y", "shape": [2], "dtype": "int32"}, {"name": "Generator/DBlock_3/Upsample/strided_slice/stack_2", "shape": [1], "dtype": "int32"}, {"name": "Generator/DBlock_3/Upsample/strided_slice/stack_1", "shape": [1], "dtype": "int32"}, {"name": "Generator/DBlock_3/Upsample/strided_slice/stack", "shape": [1], "dtype": "int32"}, {"name": "Generator/EBlock_1/Conv/weights", "shape": [4, 4, 32, 64], "dtype": "float32"}, {"name": "Generator/EBlock_1/ResBlock_0/SEUnit/fully_connected_1/biases", "shape": [64], "dtype": "float32"}, {"name": "Generator/EBlock_1/ResBlock_0/SEUnit/fully_connected_1/weights", "shape": [64, 64], "dtype": "float32"}, {"name": "Generator/EBlock_1/ResBlock_0/SEUnit/fully_connected/biases", "shape": [64], "dtype": "float32"}, {"name": "Generator/EBlock_1/ResBlock_0/SEUnit/fully_connected/weights", "shape": [64, 64], "dtype": "float32"}, {"name": "Generator/EBlock_1/ResBlock_0/Conv_1/weights", "shape": [3, 3, 64, 64], "dtype": "float32"}, {"name": "Generator/EBlock_1/ResBlock_0/Conv/weights", "shape": [3, 3, 64, 64], "dtype": "float32"}, {"name": "Generator/EBlock_1/ResBlock_1/SEUnit/fully_connected_1/biases", "shape": [64], "dtype": "float32"}, {"name": "Generator/EBlock_1/ResBlock_1/SEUnit/fully_connected_1/weights", "shape": [64, 64], "dtype": "float32"}, {"name": "Generator/EBlock_1/ResBlock_1/SEUnit/fully_connected/biases", "shape": [64], "dtype": "float32"}, {"name": "Generator/EBlock_1/ResBlock_1/SEUnit/fully_connected/weights", "shape": [64, 64], "dtype": "float32"}, {"name": "Generator/EBlock_1/ResBlock_1/Conv_1/weights", "shape": [3, 3, 64, 64], "dtype": "float32"}, {"name": "Generator/EBlock_1/ResBlock_1/Conv/weights", "shape": [3, 3, 64, 64], "dtype": "float32"}, {"name": "Generator/DBlock_2/Conv/weights", "shape": [3, 3, 96, 64], "dtype": "float32"}, {"name": "Generator/EBlock_2/Conv/weights", "shape": [4, 4, 64, 96], "dtype": "float32"}, {"name": "Generator/EBlock_2/ResBlock_0/SEUnit/fully_connected_1/biases", "shape": [96], "dtype": "float32"}, {"name": "Generator/EBlock_2/ResBlock_0/SEUnit/fully_connected_1/weights", "shape": [96, 96], "dtype": "float32"}, {"name": "Generator/EBlock_2/ResBlock_0/SEUnit/fully_connected/biases", "shape": [96], "dtype": "float32"}, {"name": "Generator/EBlock_2/ResBlock_0/SEUnit/fully_connected/weights", "shape": [96, 96], "dtype": "float32"}, {"name": "Generator/EBlock_2/ResBlock_0/Conv_1/weights", "shape": [3, 3, 96, 96], "dtype": "float32"}, {"name": "Generator/EBlock_2/ResBlock_0/Conv/weights", "shape": [3, 3, 96, 96], "dtype": "float32"}, {"name": "Generator/EBlock_2/ResBlock_1/SEUnit/fully_connected_1/biases", "shape": [96], "dtype": "float32"}, {"name": "Generator/EBlock_2/ResBlock_1/SEUnit/fully_connected_1/weights", "shape": [96, 96], "dtype": "float32"}, {"name": "Generator/EBlock_2/ResBlock_1/SEUnit/fully_connected/biases", "shape": [96], "dtype": "float32"}, {"name": "Generator/EBlock_2/ResBlock_1/SEUnit/fully_connected/weights", "shape": [96, 96], "dtype": "float32"}, {"name": "Generator/EBlock_2/ResBlock_1/Conv_1/weights", "shape": [3, 3, 96, 96], "dtype": "float32"}, {"name": "Generator/EBlock_2/ResBlock_1/Conv/weights", "shape": [3, 3, 96, 96], "dtype": "float32"}, {"name": "Generator/DBlock_3/Conv/weights", "shape": [3, 3, 128, 96], "dtype": "float32"}, {"name": "Generator/EBlock_3/Conv/weights", "shape": [4, 4, 96, 128], "dtype": "float32"}, {"name": "Generator/EBlock_3/ResBlock_0/SEUnit/fully_connected_1/biases", "shape": [128], "dtype": "float32"}, {"name": "Generator/EBlock_3/ResBlock_0/SEUnit/fully_connected_1/weights", "shape": [128, 128], "dtype": "float32"}, {"name": "Generator/EBlock_3/ResBlock_0/SEUnit/fully_connected/biases", "shape": [128], "dtype": "float32"}, {"name": "Generator/EBlock_3/ResBlock_0/SEUnit/fully_connected/weights", "shape": [128, 128], "dtype": "float32"}, {"name": "Generator/EBlock_3/ResBlock_0/Conv_1/weights", "shape": [3, 3, 128, 128], "dtype": "float32"}, {"name": "Generator/EBlock_3/ResBlock_0/Conv/weights", "shape": [3, 3, 128, 128], "dtype": "float32"}, {"name": "Generator/EBlock_3/ResBlock_1/SEUnit/fully_connected_1/biases", "shape": [128], "dtype": "float32"}, {"name": "Generator/EBlock_3/ResBlock_1/SEUnit/fully_connected_1/weights", "shape": [128, 128], "dtype": "float32"}, {"name": "Generator/EBlock_3/ResBlock_1/SEUnit/fully_connected/biases", "shape": [128], "dtype": "float32"}, {"name": "Generator/EBlock_3/ResBlock_1/SEUnit/fully_connected/weights", "shape": [128, 128], "dtype": "float32"}, {"name": "Generator/EBlock_3/ResBlock_1/Conv_1/weights", "shape": [3, 3, 128, 128], "dtype": "float32"}, {"name": "Generator/EBlock_3/ResBlock_1/Conv/weights", "shape": [3, 3, 128, 128], "dtype": "float32"}, {"name": "Generator/DBlock_3/ResBlock_0/SEUnit/fully_connected_1/biases", "shape": [96], "dtype": "float32"}, {"name": "Generator/DBlock_3/ResBlock_0/SEUnit/fully_connected_1/weights", "shape": [96, 96], "dtype": "float32"}, {"name": "Generator/DBlock_3/ResBlock_0/SEUnit/fully_connected/biases", "shape": [96], "dtype": "float32"}, {"name": "Generator/DBlock_3/ResBlock_0/SEUnit/fully_connected/weights", "shape": [96, 96], "dtype": "float32"}, {"name": "Generator/DBlock_3/ResBlock_0/Conv_1/weights", "shape": [3, 3, 96, 96], "dtype": "float32"}, {"name": "Generator/DBlock_3/ResBlock_0/Conv/weights", "shape": [3, 3, 96, 96], "dtype": "float32"}, {"name": "Generator/DBlock_3/ResBlock_1/SEUnit/fully_connected_1/biases", "shape": [96], "dtype": "float32"}, {"name": "Generator/DBlock_3/ResBlock_1/SEUnit/fully_connected_1/weights", "shape": [96, 96], "dtype": "float32"}, {"name": "Generator/DBlock_3/ResBlock_1/SEUnit/fully_connected/biases", "shape": [96], "dtype": "float32"}, {"name": "Generator/DBlock_3/ResBlock_1/SEUnit/fully_connected/weights", "shape": [96, 96], "dtype": "float32"}, {"name": "Generator/DBlock_3/ResBlock_1/Conv_1/weights", "shape": [3, 3, 96, 96], "dtype": "float32"}, {"name": "Generator/DBlock_3/ResBlock_1/Conv/weights", "shape": [3, 3, 96, 96], "dtype": "float32"}, {"name": "Generator/DBlock_2/ResBlock_0/SEUnit/fully_connected_1/biases", "shape": [64], "dtype": "float32"}, {"name": "Generator/DBlock_2/ResBlock_0/SEUnit/fully_connected_1/weights", "shape": [64, 64], "dtype": "float32"}, {"name": "Generator/DBlock_2/ResBlock_0/SEUnit/fully_connected/biases", "shape": [64], "dtype": "float32"}, {"name": "Generator/DBlock_2/ResBlock_0/SEUnit/fully_connected/weights", "shape": [64, 64], "dtype": "float32"}, {"name": "Generator/DBlock_2/ResBlock_0/Conv_1/weights", "shape": [3, 3, 64, 64], "dtype": "float32"}, {"name": "Generator/DBlock_2/ResBlock_0/Conv/weights", "shape": [3, 3, 64, 64], "dtype": "float32"}, {"name": "Generator/DBlock_2/ResBlock_1/SEUnit/fully_connected_1/biases", "shape": [64], "dtype": "float32"}, {"name": "Generator/DBlock_2/ResBlock_1/SEUnit/fully_connected_1/weights", "shape": [64, 64], "dtype": "float32"}, {"name": "Generator/DBlock_2/ResBlock_1/SEUnit/fully_connected/biases", "shape": [64], "dtype": "float32"}, {"name": "Generator/DBlock_2/ResBlock_1/SEUnit/fully_connected/weights", "shape": [64, 64], "dtype": "float32"}, {"name": "Generator/DBlock_2/ResBlock_1/Conv_1/weights", "shape": [3, 3, 64, 64], "dtype": "float32"}, {"name": "Generator/DBlock_2/ResBlock_1/Conv/weights", "shape": [3, 3, 64, 64], "dtype": "float32"}, {"name": "Generator/DBlock_1/ResBlock_0/SEUnit/fully_connected_1/biases", "shape": [32], "dtype": "float32"}, {"name": "Generator/DBlock_1/ResBlock_0/SEUnit/fully_connected_1/weights", "shape": [32, 32], "dtype": "float32"}, {"name": "Generator/DBlock_1/ResBlock_0/SEUnit/fully_connected/biases", "shape": [32], "dtype": "float32"}, {"name": "Generator/DBlock_1/ResBlock_0/SEUnit/fully_connected/weights", "shape": [32, 32], "dtype": "float32"}, {"name": "Generator/DBlock_1/ResBlock_0/Conv_1/weights", "shape": [3, 3, 32, 32], "dtype": "float32"}, {"name": "Generator/DBlock_1/ResBlock_0/Conv/weights", "shape": [3, 3, 32, 32], "dtype": "float32"}, {"name": "Generator/DBlock_1/ResBlock_1/SEUnit/fully_connected_1/biases", "shape": [32], "dtype": "float32"}, {"name": "Generator/DBlock_1/ResBlock_1/SEUnit/fully_connected_1/weights", "shape": [32, 32], "dtype": "float32"}, {"name": "Generator/DBlock_1/ResBlock_1/SEUnit/fully_connected/biases", "shape": [32], "dtype": "float32"}, {"name": "Generator/DBlock_1/ResBlock_1/SEUnit/fully_connected/weights", "shape": [32, 32], "dtype": "float32"}, {"name": "Generator/DBlock_1/ResBlock_1/Conv_1/weights", "shape": [3, 3, 32, 32], "dtype": "float32"}, {"name": "Generator/DBlock_1/ResBlock_1/Conv/weights", "shape": [3, 3, 32, 32], "dtype": "float32"}, {"name": "Generator/DBlock_0/ResBlock_0/SEUnit/fully_connected_1/biases", "shape": [32], "dtype": "float32"}, {"name": "Generator/DBlock_0/ResBlock_0/SEUnit/fully_connected_1/weights", "shape": [32, 32], "dtype": "float32"}, {"name": "Generator/DBlock_0/ResBlock_0/SEUnit/fully_connected/biases", "shape": [32], "dtype": "float32"}, {"name": "Generator/DBlock_0/ResBlock_0/SEUnit/fully_connected/weights", "shape": [32, 32], "dtype": "float32"}, {"name": "Generator/DBlock_0/ResBlock_0/Conv_1/weights", "shape": [3, 3, 32, 32], "dtype": "float32"}, {"name": "Generator/DBlock_0/ResBlock_0/Conv/weights", "shape": [3, 3, 32, 32], "dtype": "float32"}, {"name": "Generator/DBlock_0/ResBlock_1/SEUnit/fully_connected_1/biases", "shape": [32], "dtype": "float32"}, {"name": "Generator/DBlock_0/ResBlock_1/SEUnit/fully_connected_1/weights", "shape": [32, 32], "dtype": "float32"}, {"name": "Generator/DBlock_0/ResBlock_1/SEUnit/fully_connected/biases", "shape": [32], "dtype": "float32"}, {"name": "Generator/DBlock_0/ResBlock_1/SEUnit/fully_connected/weights", "shape": [32, 32], "dtype": "float32"}, {"name": "Generator/DBlock_0/ResBlock_1/Conv_1/weights", "shape": [3, 3, 32, 32], "dtype": "float32"}, {"name": "Generator/DBlock_0/ResBlock_1/Conv/weights", "shape": [3, 3, 32, 32], "dtype": "float32"}]}]}